models/mcts/model.pkl (torch, 404188 bytes, 9 tensors)

conv1.weight f4 [32, 3, 3, 3]
0	0xbd6e9fbf	-0.058257814
1	0xbc570567	-0.013123847
2	0x3d80665f	0.06269526
3	0xbdc24f9c	-0.094878405
4	0x3e40c019	0.1882328
5	0x3d0ec7b5	0.034858424
6	0x3e663ea4	0.22484833
7	0xbdb688bb	-0.08912798
8	0xbd7c1a60	-0.06154859
9	0x3dcf4df3	0.101222895
10	0x3d5e45ee	0.05426591
11	0x3e67c2ac	0.22632855
12	0x3e014242	0.12622932
13	0xbe393069	-0.18084873
14	0x39b663f6	0.00034788222
15	0xbe6b8e01	-0.23003389
16	0x3de972b7	0.11398833
17	0x3e44bf07	0.19213496
18	0xbbe36b53	-0.0069402843
19	0x3e4fc34c	0.20289344
20	0x3d9551e4	0.0729101
21	0x3e56001d	0.2089848
22	0x3e498b99	0.19682159
23	0x3d9d72d4	0.07687917
24	0x3e2ee5cf	0.17079853
25	0xbd89aac8	-0.06722027
26	0xbce0b59b	-0.027430346
27	0x3db9ca91	0.090718396
28	0x3c6ec04f	0.014572217
29	0xbe7e2d92	-0.24822071
30	0xbdcac6ce	-0.099012
31	0x3e605944	0.21909052
32	0xbd78a1d3	-0.060701203
33	0xbd23073e	-0.03980183
34	0x3e64300e	0.22283956
35	0x3e20f784	0.1571942
36	0xbaf6b0d0	-0.0018821005
37	0x3db6020e	0.08887111
38	0x3dc640f8	0.096803606
39	0xbd4d0c13	-0.050060343
40	0x3d3d3fbe	0.046203367
41	0xbd088d51	-0.033337895
42	0x3d095413	0.033527445
43	0x3dbfa62b	0.09357866
44	0xbde96124	-0.11395481
45	0x3e559c30	0.20860362
46	0x3d588d10	0.052868903
47	0xbd090803	-0.033454906
48	0xbd87bae3	-0.06627443
49	0xbd7aacfd	-0.06120013
50	0x3e99cdb3	0.3003975
51	0xbe07fd2f	-0.13280176
52	0x3bbd412c	0.0057755914
53	0xbdbb2879	-0.09138579
54	0x3e184204	0.14868933
55	0x3dc80493	0.097664975
56	0x3dcdbb62	0.10045506
57	0x3d803d34	0.062616736
58	0x3cf20f7d	0.029548401
59	0x3daa6264	0.08319548
60	0x3d7ec898	0.06220302
61	0x3cfbaf57	0.030723257
62	0xbe1b16bd	-0.15145393
63	0x3e5a2164	0.213018
64	0xbe0403d8	-0.12892091
65	0x3d8eebc3	0.06978562
66	0x3e22f941	0.15915395
67	0xbd490e46	-0.049085878
68	0xbba5b5f6	-0.005057092
69	0xbdef15f9	-0.11674113
70	0xbd313313	-0.0432616
71	0x3cd6376d	0.026149476
72	0xbd368a5e	-0.04456555
73	0x3e691e42	0.22765449
74	0x3cbff4e1	0.023432197
75	0xbe1d3408	-0.1535188
76	0xbbd4937d	-0.0064873085
77	0xbbc79d54	-0.006091753
78	0x3e3f55c3	0.18685059
79	0x3e1fece1	0.15617706
80	0x3e517fe6	0.20458946
81	0x3e3951af	0.18097566
82	0x3cf708f2	0.030155633
83	0xbde60f66	-0.11233406
84	0xbde56692	-0.11201204
85	0x3cad5943	0.021160727
86	0xbdf9e1a9	-0.122012444
87	0xbd3e47ca	-0.046455182
88	0x3de19bdb	0.11016055
89	0xbdecf60d	-0.11570368
90	0x3cc5e994	0.02415923
91	0x3e05494b	0.1301624
92	0xbe3fa2a4	-0.18714386
93	0x3da4229e	0.08014415
94	0x3e5cb9a7	0.21555196
95	0x3c99f1f9	0.01879214
96	0x3d25cfba	0.040481307
97	0x3dd919b3	0.10600605
98	0xbdeea495	-0.11652485
99	0x3e3fb53f	0.18721484
100	0x3dc696e8	0.09696752
101	0x3e4d4a9a	0.2004799
102	0x3d6993a3	0.057025563
103	0x3e33ec20	0.17570543
104	0xbdd250b9	-0.10269303
105	0x3d2b0bdd	0.04175936
106	0x3e30b02b	0.17254703
107	0x3e71feda	0.23632374
108	0x3cce48c6	0.025181185
109	0x3e73d544	0.23811823
110	0xbc55815a	-0.013031328
111	0x3e0d045b	0.13771193
112	0xbe2ba1ff	-0.16761015
113	0x3c7fedb2	0.015620636
114	0x3e2845ee	0.16432926
115	0x3daff06f	0.08590781
116	0x3c011321	0.007878096
117	0x3e29b476	0.16572747
118	0x3e4bc616	0.19899783
119	0x3dc0f0d9	0.09420938
120	0xbe08ae10	-0.1334765
121	0x3df048f8	0.11732668
122	0x3cabba5e	0.02096289
123	0x3e23a991	0.15982653
124	0x3d9053ec	0.07047257
125	0xbcfbbca6	-0.030729603
126	0x3cb4a4b7	0.022051198
127	0xbe3f1428	-0.18660033
128	0xbe22cf20	-0.15899324
129	0xbe12f562	-0.14351419
130	0x3e334415	0.1750644
131	0x3e1a7a76	0.15085778
132	0x3da131cc	0.07870826
133	0x3e3ad1f7	0.18244158
134	0x3d767773	0.06017251
135	0x3e1ad84b	0.15121572
136	0x3e61d0f1	0.22052361
137	0xbd4c5923	-0.049889695
138	0x3e48877a	0.1958293
139	0x3c705016	0.0146675315
140	0xbe3d4acb	-0.18485563
141	0x3e3e7891	0.1860068
142	0x3e8b1a93	0.27168712
143	0xbd7d4880	-0.06183672
144	0xbb9f5b0a	-0.0048631476
145	0x3dacd3e1	0.0843885
146	0x3e04b51a	0.1295971
147	0x3e0bbe11	0.13646723
148	0x3ddd21a2	0.107974306
149	0x3de09e48	0.1096769
150	0x3e32d40a	0.17463699
151	0xbd646b9f	-0.055766698
152	0xbe75de90	-0.24010682
153	0x3e0602a0	0.13086939
154	0xbe3de65d	-0.18544908
155	0x3d044833	0.032295417
156	0x3e04215f	0.12903355
157	0xbe0bef89	-0.13665594
158	0x3e3ba24f	0.18323635
159	0x3e104d64	0.14092022
160	0xbe385646	-0.1800166
161	0x3e81f81d	0.25384608
162	0xbd8f5912	-0.06999411
163	0x3e0131ef	0.12616704
164	0xbde7083a	-0.11280866
165	0x3e526a31	0.20548321
166	0x3dec7154	0.11545053
167	0x3da6b844	0.08140615
168	0x3d83cf6a	0.064360455
169	0x3e0cedab	0.13762538
170	0xbdc7d0b9	-0.097566076
171	0x3e3c2423	0.1837316
172	0x3e0b0e68	0.13579714
173	0x3e393df8	0.18090045
174	0xbc67ea99	-0.0141550535
175	0xbbcdc830	-0.0062799677
176	0x3dfeea17	0.12446993
177	0x3e7b0bc9	0.24516214
178	0x3e630029	0.2216803
179	0x3e3a423d	0.1818933
180	0xbe514c49	-0.20439257
181	0x3e53e346	0.20692167
182	0xbe8325dc	-0.25614822
183	0xbe158333	-0.1460083
184	0xbc709ba6	-0.014685547
185	0xbe621a84	-0.22080427
186	0x3e36552d	0.1780593
187	0x3de2cbd0	0.110740304
188	0xbd4cf9ff	-0.050043102
189	0xbe54e494	-0.2079032
190	0xbcd4125f	-0.025887666
191	0xbd45e148	-0.048310548
192	0x3bb0f30e	0.005400068
193	0xbe0b2121	-0.13586856
194	0x3e089d1b	0.13341181
195	0x3b5465b1	0.0032409246
196	0x3e50de69	0.20397343
197	0xbe733345	-0.23750027
198	0x3e561c7b	0.20909302
199	0xbe4b7f99	-0.19872893
200	0x3e0c16e4	0.13680607
201	0xbe451e15	-0.19249757
202	0xbd3266cb	-0.043555062
203	0x3bfbbcb1	0.007682406
204	0x3ddcf322	0.107885614
205	0x3cafbe8e	0.021453168
206	0x3cc81610	0.024424583
207	0x3d8f2368	0.06989175
208	0xbbc4f48c	-0.0060105976
209	0x3defe5bc	0.1171374
210	0x3d2a19a4	0.04152836
211	0x3d356985	0.044290084
212	0x3d014d74	0.031568006
213	0x3e35adaf	0.17742036
214	0xbe14e7fc	-0.1454162
215	0x3d869f0c	0.065733045
216	0x3df4e490	0.11957657
217	0xbe2c20a3	-0.16809325
218	0xbe8978d2	-0.2684999
219	0xbcad603c	-0.021164052
220	0xbe0cf137	-0.13763891
221	0x3d59e2a8	0.053194672
222	0xbc9222f9	-0.017838942
223	0xbdc28bfc	-0.09499356
224	0x3e308c54	0.17241031
225	0xbe52d591	-0.20589282
226	0x3de5630e	0.11200534
227	0xbde56d76	-0.11202519
228	0xbcd81ffd	-0.02638244
229	0x3c6a608e	0.014305247
230	0x3e6f3a2d	0.23362036
231	0xbe55ae70	-0.20867324
232	0x3d0d75fc	0.034536347
233	0xbd3e1828	-0.046409756
234	0xbc1d00c2	-0.0095827
235	0xbdd47fff	-0.10375976
236	0x3e2b17e4	0.16708332
237	0x3e0fc44d	0.14039727
238	0x3b7d8a7c	0.003868728
239	0xbdc4d0e8	-0.09610158
240	0x3e665fdb	0.22497503
241	0x3e4b254b	0.19838445
242	0xbe16bb95	-0.14719994
243	0xbdc70a8d	-0.09718809
244	0x3db36756	0.08759944
245	0xbe0c6b68	-0.13712847
246	0x3da841e2	0.08215691
247	0x3cde69aa	0.027149994
248	0xbe78aadd	-0.24283929
249	0x3c392cf3	0.011302221
250	0x3dd6a47f	0.10480594
251	0xbe41354e	-0.1886799
252	0x3e7b6a3b	0.24552242
253	0x3d99b43a	0.075050786
254	0xbe69f56d	-0.22847529
255	0x3e749377	0.23884378

conv1.bias f4 [32]
0	0x3d1ba0b5	0.03799506
1	0xbce2a611	-0.027667077
2	0x3df1202b	0.11773714
3	0x3b43c2ac	0.0029870672
4	0xba9166f2	-0.0011093302
5	0xbdc3d00c	-0.09561166
6	0xbd2caecb	-0.042158883
7	0x3df954fd	0.12174413
8	0x3d06065e	0.032720916
9	0xbc56b0bd	-0.013103661
10	0x3d844592	0.06458582
11	0xbdfcd836	-0.123459265
12	0xbd3b1e18	-0.045682997
13	0xbdfc6713	-0.12324347
14	0xbd66a442	-0.056308992
15	0x39cab98b	0.00038666683
16	0xbe1e6adb	-0.1547045
17	0xbbae5a9e	-0.005320861
18	0x3e4d49d1	0.2004769
19	0x3e42a7ed	0.19009371
20	0x3e139efe	0.1441612
21	0xbdb000c1	-0.08593894
22	0xbd3caeb0	-0.046065032
23	0x3db8d7fe	0.09025572
24	0xbd679860	-0.0565418
25	0xbd9d72dd	-0.07687924
26	0x3e224198	0.15845335
27	0x3d86925d	0.06570885
28	0xbaeb2cf8	-0.0017942479
29	0xbde87240	-0.113499165
30	0xbd91d24f	-0.07120191
31	0x3e2d8bf6	0.16947922

conv2.weight f4 [64, 32, 3, 3]
0	0xbb13dbf9	-0.0022561534
1	0x3d78b5a5	0.060720105
2	0x3d0e065e	0.03467404
3	0x3c3f917d	0.011692402
4	0x3c8a8307	0.016908182
5	0xbaf1acd8	-0.0018438352
6	0xbce9ebd2	-0.02855483
7	0xbc6752cf	-0.014118864
8	0x3cb82e90	0.02248314
9	0x3d199d9a	0.037503816
10	0x3dcf8a2f	0.10133778
11	0x3c3bef89	0.011470684
12	0x3d9b9470	0.075966716
13	0x3dc71e94	0.09722629
14	0x3da1e087	0.07904153
15	0x3d25427d	0.04034661
16	0x3cde9b81	0.02717376
17	0xbca6b54e	-0.020350125
18	0xbcb27c9a	-0.02178793
19	0x3c88d835	0.016704658
20	0x3ce9b727	0.028529717
21	0x3d1c0533	0.038090896
22	0xbc85eca6	-0.016348194
23	0x3d537c3a	0.051632144
24	0x3d78ad54	0.060712174
25	0x3d4b1b2b	0.049586456
26	0xbcf70f1c	-0.030158572
27	0xbc8aad06	-0.016928207
28	0x3c82c048	0.015960827
29	0x3d6807cb	0.056648057
30	0xbd14a457	-0.03628954
31	0x3d0a2916	0.03373059
32	0x3cf6bf3d	0.030120486
33	0xbbd2db83	-0.0064348592
34	0x3d617e74	0.055052236
35	0x3d2087d0	0.03919202
36	0x3ca1feb9	0.019774782
37	0x3d3cd37a	0.046100117
38	0xbceb3321	-0.028710904
39	0x3d065124	0.032792225
40	0x3d636183	0.055512916
41	0x3d0636a2	0.032766946
42	0xb9abf5a4	-0.00032798678
43	0x3c961c4e	0.018324044
44	0xbb771943	-0.0037704266
45	0xbb28711d	-0.0025702186
46	0x3d1316a4	0.035910264
47	0x3d67de3e	0.05660843
48	0xbd43dd7a	-0.04781864
49	0x3ce0ba1d	0.027432496
50	0xbd008d15	-0.031384546
51	0x3d65ac34	0.05607243
52	0xbc9e9508	-0.019358173
53	0xbc592c92	-0.013255255
54	0xbd51120a	-0.051042594
55	0xbd2811e5	-0.04103269
56	0xbd253810	-0.04033667
57	0x3c9b3514	0.018946208
58	0xbcc3b286	-0.023888838
59	0x3cb7e65f	0.022448717
60	0xbc901985	-0.017590294
61	0xbd21aaa9	-0.039469395
62	0xbd41da5d	-0.047327388
63	0xbc275167	-0.010212279
64	0x3c4d1819	0.012517952
65	0x3d22d080	0.039749622
66	0x3d76b800	0.06023407
67	0x3d2587cc	0.04041271
68	0xbd3d8c70	-0.04627651
69	0xbd8458e4	-0.06462267
70	0x3c8e1d59	0.017347978
71	0x3d322c15	0.04349907
72	0x3dcf473a	0.10121007
73	0xbd8ec904	-0.069719344
74	0xbd2308cb	-0.039803308
75	0xbdc67124	-0.096895486
76	0xbcbdba79	-0.023160206
77	0x3dada0df	0.08477949
78	0x3d24f8f9	0.0402765
79	0x3da4e77e	0.08051966
80	0x3d85e86e	0.06538473
81	0xbc37603c	-0.011192378
82	0xbb1f6ff4	-0.0024328204
83	0x3d86dafc	0.06584737
84	0x3d3203a9	0.04346052
85	0x3d657b38	0.056025714
86	0x3d25085c	0.040291175
87	0x3abd839a	0.0014458776
88	0x3d2ff2e1	0.042956237
89	0x3d10eb9f	0.035380956
90	0xbc3f3cfa	-0.011672253
91	0x3d08fbaa	0.03344313
92	0x3b8564dd	0.0040708617
93	0x3c90c6d2	0.01767293
94	0xbba42834	-0.0050096754
95	0xbd260088	-0.04052785
96	0xbbc23aa3	-0.0059274
97	0xbd89d502	-0.06730081
98	0xbbcb4ad6	-0.0062039895
99	0x3d68a9a6	0.056802414
100	0x3c93fbf5	0.018064478
101	0x3c02f889	0.007993826
102	0xbd1cb6ef	-0.038260397
103	0x3d044b52	0.032298394
104	0x3ca90651	0.020632895
105	0xbcf4b2e5	-0.02987046
106	0x3da6237a	0.08112235
107	0xbcdcfbe9	-0.026975589
108	0xbc3aed56	-0.011409124
109	0x3dac9ca5	0.08428315
110	0x3d12d0a6	0.035843514
111	0xbbe18066	-0.0068817614
112	0x3d2af9b5	0.041742045
113	0x3d653014	0.055954054
114	0x3dd6acec	0.10482201
115	0xbcadacfa	-0.021200646
116	0x3d8b04cc	0.06788024
117	0xbad520a0	-0.0016260333
118	0xbd378c79	-0.0448117
119	0xbd32f6d6	-0.043692432
120	0xbbe21c95	-0.00690038
121	0x3bde6c20	0.006787792
122	0x3d5865ca	0.05283145
123	0x3bfebb07	0.0077737602
124	0x3cd46597	0.025927348
125	0x3d258c6c	0.04041712
126	0x3caacb20	0.02084881
127	0xbd10d120	-0.035355687
128	0x3c937097	0.017998023
129	0xbd81b98a	-0.06334217
130	0x3d577fb5	0.052612025
131	0x3d71696e	0.058938436
132	0xbcd5f59d	-0.026118094
133	0xbc9b5907	-0.01896335
134	0x3d32d15c	0.043656692
135	0x3d3c5e65	0.04598846
136	0x3c87669a	0.016528416
137	0x3c159f54	0.009132225
138	0x3d3ba45c	0.045811042
139	0x3d4c6644	0.049902216
140	0x3d0d9421	0.034565095
141	0x3db25ae3	0.087087415
142	0x3b92d21a	0.0044806125
143	0x3d093cdc	0.033505306
144	0xbd32a3df	-0.04361331
145	0x3da46bea	0.080283955
146	0x3d8f2899	0.06990165
147	0x3cf0c37c	0.02939009
148	0xbd33cef6	-0.043898545
149	0x3c1d07ec	0.009584408
150	0xbc04dd85	-0.008109455
151	0x3c3a4f1d	0.011371401
152	0x3c94d672	0.018168662
153	0xbca19a76	-0.019726973
154	0x3d61d5e4	0.055135623
155	0xbd46019d	-0.048341382
156	0x3dadbc18	0.08483142
157	0x3d04a61e	0.032384984
158	0xbd9d2560	-0.07673144
159	0x3ca4b4c5	0.020105729
160	0xbd891bee	-0.0669478
161	0xb98c90dc	-0.0002681081
162	0xbd5a3d8b	-0.05328135
163	0x3d3d825f	0.04626691
164	0xbcc420ee	-0.023941483
165	0xbc90816a	-0.017639834
166	0x3c86abd2	0.016439352
167	0x3cbd2af9	0.02309178
168	0x3d7a5d9a	0.06112442
169	0xbd05e5c1	-0.032689814
170	0xbd337b13	-0.043818545
171	0xbd01e72d	-0.031714607
172	0x3ca69043	0.020332461
173	0x3d2b04a0	0.041752458
174	0x3d66fadf	0.056391593
175	0x3d704681	0.058660988
176	0xbb905d2f	-0.0044056396
177	0xbd376f4d	-0.04478388
178	0xbd18073e	-0.03711628
179	0x3c95e75c	0.018298797
180	0xbc841ce1	-0.016127052
181	0x3d1a2ae9	0.03763858
182	0x3d712ce6	0.05888071
183	0xbcc7b597	-0.024378581
184	0x3ce3c656	0.027804535
185	0x3d70e8b6	0.05881568
186	0xbd15542d	-0.03645723
187	0xbc87a447	-0.016557826
188	0xbd1c3a91	-0.03814179
189	0xbd4430f3	-0.047898244
190	0xbcc7a140	-0.024368882
191	0x3d3f9145	0.0467694
192	0xbc4a4492	-0.01234545
193	0xbce7a8c5	-0.028278718
194	0x3cb8e986	0.02257229
195	0x3c2d0e2f	0.010562464
196	0xbcd71525	-0.0262552
197	0xba1fdac9	-0.000609797
198	0xbd01a723	-0.031653535
199	0x3cfd5816	0.030925792
200	0x3de14dd1	0.110011704
201	0x3d8bc072	0.068238154
202	0xbb8b17ce	-0.004244781
203	0x3ceaec2d	0.02867707
204	0x3cb9ec77	0.022695763
205	0x3d131d3e	0.03591656
206	0xbcbd4f50	-0.023109108
207	0x3c43e526	0.011956489
208	0xbc011d5b	-0.007880534
209	0xbcde8efc	-0.02716779
210	0x3b5cc991	0.003368948
211	0xba83c88e	-0.0010054277
212	0x3d11780a	0.03551487
213	0x3cfcda4c	0.03086581
214	0x3bd3aaf3	0.0064595877
215	0x3c88afe8	0.016685441
216	0xbd0d0518	-0.034428686
217	0xbce5d9d7	-0.028057976
218	0xbca63bd6	-0.020292204
219	0x3cf68c04	0.030096062
220	0xbc75164c	-0.014958929
221	0x3be197b2	0.0068845386
222	0x3cee1d45	0.029066691
223	0xbd4cb228	-0.04997459
224	0xbc296cd7	-0.010340891
225	0x3d468c7e	0.048473828
226	0xbba6dc2c	-0.0050921645
227	0x3a9d9774	0.0012023286
228	0x3bd27d2b	0.0064236126
229	0xbd18086b	-0.037117403
230	0xbd7025f7	-0.058629956
231	0xbbf4de8c	-0.0074728187
232	0xbc40586d	-0.011739832
233	0xbb7e6bd5	-0.0038821597
234	0xbd2a8fb3	-0.04164095
235	0xbd06e966	-0.03293743
236	0x3a00b522	0.00049098034
237	0xbc017f45	-0.007903879
238	0xbd539dec	-0.051664278
239	0x3cc84e45	0.024451384
240	0xbb673a8c	-0.00352827
241	0xbd275478	-0.04085204
242	0xbce24dc2	-0.027624968
243	0x3d33ae3a	0.043867327
244	0xbd457499	-0.0482069
245	0x3d5450f8	0.05183503
246	0x3d1d54b7	0.03841087
247	0x3d60566f	0.05476993
248	0x3d74a76c	0.05972998
249	0xbc569056	-0.013095936
250	0xbc22a1e7	-0.009926296
251	0x3c3db819	0.011579537
252	0x3cacfa1a	0.021115351
253	0x3d01326d	0.03154223
254	0x3cfed0dd	0.031105453
255	0x3d5e4ca1	0.054272298

conv2.bias f4 [64]
0	0x3cb86a37	0.022511585
1	0x3d564460	0.0523113
2	0xbc39b9fd	-0.011335847
3	0xbcc3601c	-0.02384954
4	0x3d635e21	0.05550969
5	0x3cdfd43f	0.027322887
6	0xbc5ac864	-0.013353441
7	0x3ce88200	0.028382301
8	0x3cb56941	0.022144916
9	0xbcb562d4	-0.022141851
10	0xbc20da74	-0.009817708
11	0xbccab672	-0.0247452
12	0x3d766f4c	0.060164735
13	0x3d86dd89	0.06585223
14	0x3d6401c7	0.055665758
15	0xbd119d2a	-0.035550274
16	0x3d51633f	0.05112004
17	0x3d149bb7	0.036281314
18	0xbd458f67	-0.048232462
19	0x3d7d8fcd	0.061904717
20	0xbcb4516d	-0.022011483
21	0xbb839ddf	-0.0040166224
22	0x3d6d9e5d	0.058012355
23	0xbcd283d0	-0.025697619
24	0xbc9f9c2f	-0.019483654
25	0x3c316bb3	0.0108289
26	0xbc662021	-0.014045746
27	0x3bc0144d	0.005861795
28	0xbcda6772	-0.026660655
29	0x3c376ac0	0.011194885
30	0xbaa8bea6	-0.00128742
31	0x3d95d5de	0.073161826
32	0xbcc7588e	-0.024334218
33	0x3c457b4c	0.012053322
34	0x3cb0eb4f	0.021596579
35	0xbcc3d639	-0.02390586
36	0xbbc66a64	-0.006055163
37	0x3d6f10ec	0.058365747
38	0x3d6f3b94	0.058406428
39	0xbd1f9617	-0.038961496
40	0x3d0bb1d0	0.034105122
41	0x3d022af3	0.03177924
42	0x3d7648b0	0.060127914
43	0x3cbb60b3	0.022873258
44	0xbcea4b13	-0.028600251
45	0xbd3c79f6	-0.04601475
46	0x3d5bd675	0.05367132
47	0xbc86a9a5	-0.016438315
48	0x3c216b1d	0.009852198
49	0x3d47765b	0.048696857
50	0x3d2456f7	0.040122
51	0x3cd2b3cf	0.025720505
52	0xbd4182d9	-0.047243927
53	0x3d80257f	0.06257152
54	0x3d708f4a	0.0587304
55	0x3b23c85f	0.0024991257
56	0x3d024b23	0.031809937
57	0xbc93df76	-0.01805089
58	0xbd418d74	-0.04725404
59	0xbd3bbc82	-0.045834072
60	0x3d1e8dfd	0.03870963
61	0xbc1c398e	-0.0095352065
62	0xbd6763b2	-0.05649156
63	0xbd1139c9	-0.0354555

fc1.weight f4 [128, 576]
0	0x3c2945b1	0.010331557
1	0x3d1f422c	0.038881466
2	0x3d0534e2	0.032521136
3	0x3d37014d	0.044678975
4	0x3bd43d8f	0.006477065
5	0x3cb35067	0.021888925
6	0x3bf20f14	0.0073870514
7	0x3d35f199	0.04441986
8	0xbd1c12d5	-0.038103897
9	0x3cc5ced2	0.024146471
10	0xbc4d0885	-0.012514238
11	0xbb0284b1	-0.0019915516
12	0x3d0f3fb9	0.03497288
13	0xbcf3806f	-0.029724328
14	0xbcd35af8	-0.025800213
15	0xbc74e401	-0.0149469385
16	0xbd02bf98	-0.031921
17	0xbc6399f7	-0.013891689
18	0xbd2b584b	-0.04183225
19	0x3c052cfe	0.008128403
20	0x3d8286a3	0.06373336
21	0xbd11a01a	-0.035553075
22	0x3c6e3ffb	0.014541621
23	0x3d78482e	0.06061571
24	0x3c897841	0.016780974
25	0x3d6e1529	0.05812565
26	0x3af32ef8	0.0018553426
27	0xbd481fcf	-0.04885846
28	0xbbbed601	-0.005823851
29	0xbd3f487c	-0.046699986
30	0x3daead61	0.08529163
31	0x3dd69fcf	0.104797
32	0xbdc8bcde	-0.098016486
33	0x3b6dd107	0.003628792
34	0xbc91e56b	-0.01780959
35	0xbd6c086f	-0.05762523
36	0xbc0561b9	-0.008140975
37	0x3c8eaab9	0.017415391
38	0xbd49847b	-0.04919861
39	0xbcadd56e	-0.021219935
40	0xbcb24e38	-0.021765813
41	0x3c88be13	0.016692197
42	0x3c03c6fe	0.008043049
43	0x3c91e896	0.0178111
44	0x3cb92a1b	0.022603085
45	0xbbaf3ca2	-0.005347804
46	0x3cd34b64	0.025792785
47	0xbcd3c5ae	-0.025851097
48	0xbd43bb29	-0.04778591
49	0x3d7b2c5a	0.061321594
50	0x3adcdcd8	0.0016850485
51	0xbd12ef86	-0.03587296
52	0x39580d1b	0.00020604247
53	0x3c415267	0.011799431
54	0xbd6efc77	-0.058346238
55	0x3d13b4be	0.03606104
56	0x3d7d2f84	0.061812893
57	0xbd6fd44e	-0.05855208
58	0xbd8a9d31	-0.06768263
59	0xbcc55d2e	-0.024092283
60	0xbc816eef	-0.015799968
61	0x3d489f48	0.048980027
62	0x3d5a3d94	0.05328138
63	0xbc94f9b5	-0.018185476
64	0xbd2eec57	-0.04270586
65	0x3d673309	0.056445155
66	0xbd483f41	-0.04888845
67	0x3d0cd074	0.034378484
68	0x3c30ac5e	0.010783283
69	0xbcd25603	-0.02567578
70	0xbd0f1254	-0.03492959
71	0xbba4ebd8	-0.0050329976
72	0x3d0ed0ef	0.034867223
73	0x3c2f209b	0.010688926
74	0x3ca9d3f2	0.020730946
75	0xbade7ccd	-0.0016974449
76	0xbc3663df	-0.01113221
77	0x3ce28e6f	0.027655808
78	0xbd0bddf6	-0.034147225
79	0x3c105454	0.008809168
80	0x3a0fc3e2	0.0005484206
81	0x3d618bf8	0.055065125
82	0x3bfd4187	0.0077287587
83	0x3c4a782e	0.012357755
84	0x3cc2b53b	0.023768058
85	0xbd0bc109	-0.03411964
86	0xbcd8666f	-0.026416032
87	0xbd6e9e82	-0.058256634
88	0x3bf03f8e	0.007331795
89	0xbd1f936e	-0.03895896
90	0x3bbf8a50	0.0058453456
91	0xbd0cdf0d	-0.034392405
92	0x3d225c82	0.039639004
93	0x3bfa33c6	0.0076355664
94	0xbccbf433	-0.024896717
95	0x3cf299b1	0.029614301
96	0x3d84bc63	0.064812444
97	0xbcf2522b	-0.029580196
98	0x3d3da5c9	0.046300683
99	0xbcc81199	-0.024422454
100	0x3cfffb35	0.031247715
101	0x3ceb221a	0.028702784
102	0x3be05f98	0.006847333
103	0x3d414218	0.047182173
104	0x3b0d336f	0.002154555
105	0x3c4d5368	0.012532093
106	0xbd6f9674	-0.058493093
107	0x3d2ec9e2	0.042673
108	0xbdbaabe7	-0.09114819
109	0xbda84325	-0.08215932
110	0x3d850bf0	0.064964175
111	0xbca1ff30	-0.019775003
112	0x3c367b2f	0.011137768
113	0x3c92206e	0.01783773
114	0xbcc11cb8	-0.023573264
115	0x3ccf8d00	0.025335789
116	0x3c23878c	0.009981047
117	0xbd48c697	-0.049017515
118	0x3c66b3c1	0.014080943
119	0x3d42b0a2	0.04753173
120	0xbc8856cf	-0.016642956
121	0x3d069d17	0.032864656
122	0x3d6b3ea0	0.05743277
123	0x3d964acf	0.07338487
124	0xbcbeee92	-0.023307119
125	0x3b3050ab	0.002690355
126	0x3d541d74	0.0517859
127	0xbcbed750	-0.023296028
128	0x3bed1244	0.0072348434
129	0x3cdc19e1	0.026867809
130	0xbc851059	-0.016243147
131	0x3d570ff1	0.052505437
132	0xbc8a7610	-0.016902
133	0x3d150849	0.036384854
134	0x3d3be926	0.045876645
135	0x3ce54dc6	0.027991187
136	0xbd42a97c	-0.047524914
137	0xbd1c7cf0	-0.038205087
138	0x3c441c62	0.011969658
139	0x3daddc74	0.08489314
140	0x3d204813	0.039131235
141	0xbc48ccdb	-0.012255873
142	0x3da9ffe9	0.08300764
143	0x3dc0bd61	0.09411121
144	0xbc9a7c07	-0.018857969
145	0xbc228435	-0.009919216
146	0x3bd20de8	0.006410349
147	0xbba35692	-0.004984685
148	0x3ca7d66a	0.020487983
149	0x3c810634	0.015750028
150	0x3c2e7cc2	0.010649862
151	0x3d4311d1	0.047624413
152	0x3954ef48	0.00020307035
153	0xbbe682bb	-0.0070346273
154	0x3b339fe1	0.0027408528
155	0xbc2aa658	-0.010415636
156	0x3c11c24e	0.0088964235
157	0x3cc5910d	0.024117017
158	0xbb0d0468	-0.002151752
159	0x3a3149ff	0.00067630404
160	0x3c216518	0.009850763
161	0x3d0f02c8	0.03491476
162	0x3d1f7710	0.038931906
163	0x3d0c1348	0.034198076
164	0x3d047287	0.032335784
165	0x3c83fd4d	0.016111994
166	0xbc8f6e85	-0.017508755
167	0xbdee641e	-0.116401896
168	0xbc381090	-0.011234418
169	0x3cbeaf9f	0.023277102
170	0x3c8d2492	0.017229352
171	0x3d249c59	0.040188167
172	0xbc0f445d	-0.008744326
173	0xbcba4c5a	-0.022741485
174	0x3ca6d8eb	0.020367106
175	0x3c74e281	0.014946581
176	0x3d36fcad	0.044674564
177	0xbcc54fd9	-0.024085926
178	0xbc5d9c4a	-0.013526032
179	0xbc1ed47c	-0.009694215
180	0xbb7f2f18	-0.0038937982
181	0x3c8bbc65	0.017057607
182	0x3dbf7b56	0.09349696
183	0x3c80323c	0.015648954
184	0xbc8131fe	-0.015770908
185	0x3d279b80	0.04091978
186	0x3cc46d9e	0.02397805
187	0x3d6f51f9	0.058427785
188	0x3b4456f3	0.0029959052
189	0xbdd4a77b	-0.10383507
190	0xbd3742ec	-0.044741556
191	0x3d29ceaf	0.041456874
192	0x3dee7c1f	0.11644768
193	0x3cb5c230	0.022187322
194	0x3cc4ce3d	0.024024123
195	0x3d3f1e81	0.04665995
196	0xbd0a6c9e	-0.03379499
197	0x3ca8b157	0.020592375
198	0xbb915601	-0.0044353013
199	0x3c41a95e	0.011820165
200	0xbca0def4	-0.019637562
201	0xbd309caf	-0.043118175
202	0x3b0f5fc6	0.0021877154
203	0x3d4058c6	0.04695966
204	0x3d5f3fde	0.054504268
205	0xbc97553a	-0.018473256
206	0xbbf617a5	-0.007510143
207	0xbb2f06b0	-0.0026706867
208	0xbd4da6d9	-0.050207946
209	0x3d83fbe2	0.06444527
210	0x3d03eb73	0.032206964
211	0x3b7eab09	0.003885927
212	0x3d1b14df	0.0378617
213	0x3d0e9420	0.03480923
214	0x3c8bcffe	0.017066952
215	0x3dc63a8d	0.096791364
216	0xbd0d0cf7	-0.034436192
217	0x3d8efe05	0.06982044
218	0x3cd3f604	0.025874145
219	0x3cb9617c	0.022629492
220	0x3b5fd072	0.0034151343
221	0xbcbf87f1	-0.023380252
222	0x3d46f624	0.04857458
223	0xbca610f7	-0.020271761
224	0x3d276648	0.040869027
225	0xbd2ca42e	-0.04214876
226	0x3cfbcb6f	0.030736653
227	0xbb59f730	-0.0033258907
228	0x3c9a733d	0.018853778
229	0x3d11f716	0.03563603
230	0x3d51e4d4	0.051243618
231	0xbd0ec0c6	-0.03485181
232	0x3c967ad0	0.018369108
233	0x3c507269	0.01272259
234	0xba11c6a4	-0.0005560911
235	0xbd8c694f	-0.068560235
236	0x3d5719fd	0.05251502
237	0x3c051e8a	0.008124957
238	0x3b05252c	0.0020316346
239	0x3d8a2650	0.06745589
240	0x3c2aa0e5	0.010414337
241	0xbc8801fc	-0.016602509
242	0x3cce9f11	0.025222333
243	0xbde61e4b	-0.11236247
244	0xbd4b3ca0	-0.049618363
245	0x3d5970d4	0.053086117
246	0x3ca6b981	0.020352127
247	0x3cfbc431	0.0307332
248	0xbcb47410	-0.022028
249	0x3d239b0d	0.03994279
250	0xbc030130	-0.007995889
251	0xbd257bef	-0.040401395
252	0xb9ce6dfc	-0.00039373327
253	0x3d0e1dc1	0.034696344
254	0xbd61c213	-0.055116724
255	0x3c518334	0.012787629

fc1.bias f4 [128]
0	0xbbf80b43	-0.007569702
1	0x3b994cd1	0.0046783467
2	0xbbcbc41e	-0.0062184473
3	0xb7ae1ff9	-2.0757305e-05
4	0xbc843526	-0.016138624
5	0xbc999bdf	-0.018751083
6	0xbcd2b845	-0.025722632
7	0xbbc788a7	-0.0060892883
8	0xbc372784	-0.011178855
9	0x3cd10635	0.025515655
10	0x39f65307	0.00046982637
11	0x3d453c19	0.048153017
12	0xbba590e0	-0.005052671
13	0xbd1523e5	-0.036411185
14	0xbba6bb50	-0.0050882474
15	0x3be14ad6	0.006875376
16	0x3c027e09	0.007964619
17	0xbb98ae52	-0.0046594525
18	0xbd0f8a44	-0.03504397
19	0xbcfe5fca	-0.031051535
20	0xbd4e71b5	-0.05040141
21	0x3beed155	0.007288138
22	0x3ce68604	0.028140076
23	0xbd33f92f	-0.043938812
24	0x3c90d757	0.017680807
25	0xbcdd37a0	-0.027004063
26	0x3a6a1052	0.00089288235
27	0x3c27e884	0.010248307
28	0x3d238de2	0.039930232
29	0xbd3101f1	-0.043214742
30	0x3c14e8e3	0.009088728
31	0x3cdd4cbe	0.027014133
32	0x3c08b40f	0.008343711
33	0xbb8ca6ac	-0.00429233
34	0x3cfc9007	0.030830396
35	0xbcb58075	-0.02215598
36	0xb9af9532	-0.0003348976
37	0x3ca8a6dc	0.020587377
38	0xbd0c096e	-0.03418868
39	0x3cbf88d9	0.023380684
40	0x3cce941b	0.025217107
41	0xbc447220	-0.0119901
42	0x3c2c9a8a	0.010534892
43	0xbd178c78	-0.036999196
44	0x3c989188	0.018624082
45	0xbd35a9a4	-0.044351235
46	0xbd0ac869	-0.033882532
47	0x3ba0e8a7	0.004910547
48	0x3d33010a	0.043702163
49	0x3a56c6fe	0.00081931043
50	0xbc7cc8b8	-0.015428714
51	0x3b622887	0.003450902
52	0xbcc5ae9c	-0.024131112
53	0x3cecde23	0.028914517
54	0xbc876adb	-0.016530445
55	0xbc55b378	-0.013043277
56	0xbc6cc833	-0.014452028
57	0xbc5dd997	-0.013540647
58	0xbc6652cc	-0.014057826
59	0xbd331ed5	-0.043730576
60	0xbafdcb4f	-0.0019362959
61	0xbb2fec9f	-0.0026843918
62	0xba9b87db	-0.001186605
63	0x3d05d9d4	0.03267844
64	0xbc05d611	-0.008168713
65	0x3d33ba7f	0.04387903
66	0xbcc1d493	-0.023660934
67	0x3cff1a99	0.031140612
68	0x3d62b8ec	0.055352136
69	0xbc2fe33a	-0.010735327
70	0x3d4ef0ce	0.050522618
71	0x3ccb4ec1	0.024817826
72	0xbc65d0f2	-0.014026867
73	0xbc821e9d	-0.015883738
74	0x3c3c6cfa	0.011500591
75	0x3c88a90b	0.016682168
76	0xbca0c09f	-0.019623099
77	0x3cd5cc6a	0.026098449
78	0x3bdef9e7	0.006804693
79	0xbba25d1e	-0.004954948
80	0xbd10cf0c	-0.035353705
81	0x3d1af60a	0.037832297
82	0x3d83325c	0.0640609
83	0xbc0be014	-0.008537311
84	0xbcc0b762	-0.023524944
85	0x3baed92b	0.005335947
86	0x3c9b6c4a	0.018972535
87	0xbcb308f2	-0.021854851
88	0x3ca68f42	0.020331983
89	0xbcf8e8db	-0.030384472
90	0x3cbced62	0.023062412
91	0x3d2248ba	0.03962014
92	0x3d09b520	0.03362
93	0x3c15802b	0.009124796
94	0xbcaf86d7	-0.021426601
95	0x3c8e2402	0.017351154
96	0x3d32d0f0	0.04365629
97	0xbcae8b42	-0.021306638
98	0xbcacc4b0	-0.021089882
99	0xbc8f9c4a	-0.01753058
100	0xbb7ef10f	-0.0038901006
101	0x3cb27104	0.021782406
102	0xbca938b5	-0.020656923
103	0x3c73ccfd	0.014880416
104	0x3ab8bf6c	0.0014095134
105	0xbcb9d591	-0.022684844
106	0xbd1bd800	-0.03804779
107	0x3c4181c1	0.011810721
108	0x3c5975e8	0.01327274
109	0x3ba42f4c	0.005010521
110	0x3c9e4ea8	0.019324616
111	0xbc283ca4	-0.010268364
112	0x3d1a261b	0.037633996
113	0x3cba07c5	0.022708783
114	0xbcc54103	-0.024078852
115	0x3c25369c	0.010083821
116	0xbd02bda9	-0.031919155
117	0xbbcd3cec	-0.006263366
118	0x3d1f964b	0.03896169
119	0xbd45a128	-0.048249394
120	0x3d22ee21	0.03977788
121	0x3d1877ad	0.037223507
122	0x3cd78697	0.026309295
123	0x3d522be3	0.051311385
124	0x3cfc5a3f	0.030804751
125	0xbba8371f	-0.005133524
126	0x3cf059c1	0.029339673
127	0x3d1fcb85	0.03901245

policy_head.weight f4 [9, 128]
0	0x3bf48359	0.007461947
1	0x3da9b673	0.082867526
2	0xbd9ef7e0	-0.07762122
3	0x3d823cc6	0.06359248
4	0x3c083095	0.008312364
5	0xbe0311d4	-0.1279977
6	0x3cf7582b	0.030193409
7	0x3aa33531	0.0012451765
8	0x3dc7558f	0.09733116
9	0xbd86aca7	-0.065758996
10	0x3adefaf6	0.0017012048
11	0x3d788f1a	0.060683347
12	0xbd3ca1a4	-0.04605259
13	0x3d575e03	0.05257989
14	0xbca08e70	-0.01959917
15	0x3d15fdcc	0.036618993
16	0x3ce973c7	0.02849759
17	0x3bef7de5	0.007308709
18	0xbd91a62a	-0.071117714
19	0xbce348a1	-0.027744593
20	0xbcf99a37	-0.030469043
21	0xbd8434d0	-0.06455386
22	0xbe13023c	-0.14356321
23	0xbd86e2bd	-0.06586216
24	0xbd9af814	-0.075668484
25	0xbcbfb935	-0.023403743
26	0xbd4661f7	-0.04843327
27	0xbd7c84fb	-0.061650258
28	0x3d605242	0.054765947
29	0xbcd4d8d0	-0.02598229
30	0xbd8879b8	-0.06663841
31	0xbd89816f	-0.067141406
32	0x3cdabab3	0.026700353
33	0xbb66aeb5	-0.0035199348
34	0xbd8fc537	-0.070200376
35	0x3d97b2ec	0.074071735
36	0x3d0635bf	0.0327661
37	0x3d5fffff	0.054687496
38	0xbdb19d63	-0.08672597
39	0x3ca196d1	0.019725235
40	0x3d2637b3	0.040580463
41	0xbca1a1d3	-0.019730484
42	0xbdb580dc	-0.088624686
43	0xbda05d2b	-0.078302704
44	0xbd41bc1e	-0.047298543
45	0xbd465fa6	-0.04843106
46	0xbdef6e84	-0.11691001
47	0xbdbf2f49	-0.09335191
48	0x3cab59ba	0.020916808
49	0xbddd1c4a	-0.10796411
50	0xbda6e42d	-0.0814899
51	0xbd4f8596	-0.050664507
52	0xbd097d83	-0.033566963
53	0x3a8f2c93	0.0010923318
54	0x3d430c95	0.04761942
55	0x3d3f1547	0.04665115
56	0xbda3b85e	-0.079941496
57	0xba698ae1	-0.0008908939
58	0xbe21dabe	-0.158061
59	0xbc904fcf	-0.01761618
60	0xbc415a49	-0.011801311
61	0xbd14dfda	-0.036346294
62	0xbdc7c713	-0.09754767
63	0x3d38b8ed	0.045098234
64	0x3cf15736	0.02946053
65	0xbdb367b9	-0.08760018
66	0x3d29e5c6	0.041478895
67	0xbd92edba	-0.07174249
68	0xbe211e36	-0.15734181
69	0x3d388b5c	0.04505478
70	0x3caa5a40	0.020794988
71	0x3d08c008	0.03338626
72	0x3d8e3900	0.06944466
73	0x3d2e99dd	0.042627204
74	0x3d17e564	0.037084
75	0xbcc10500	-0.023561954
76	0x3d0d52ed	0.034502912
77	0x3c1f8e3c	0.009738501
78	0x3d94b604	0.07261279
79	0xbc75fa81	-0.015013338
80	0x3d885345	0.066565074
81	0xbdf535fd	-0.11973188
82	0xbe2c5d80	-0.16832542
83	0xbda59f68	-0.08087045
84	0x3d9da5da	0.07697649
85	0xbe0339be	-0.12814996
86	0x3ccde000	0.025131226
87	0xbd81b1cc	-0.0633274
88	0xbcb68ec9	-0.022284882
89	0xbd887acb	-0.06664046
90	0xbd9f5dbb	-0.077815495
91	0xbe01caee	-0.12675068
92	0x3d385919	0.045006845
93	0x3d1d6c29	0.038433228
94	0x3d86c73f	0.06580972
95	0xbcc78895	-0.02435712
96	0x3d6d6a3e	0.05796265
97	0x3d40e6c8	0.04709509
98	0xbd87aebd	-0.066251256
99	0xbcccafae	-0.024986114
100	0xbdae1b78	-0.08501333
101	0x3d8a0ea9	0.067410775
102	0x3cbb91db	0.022896698
103	0x3d792a9f	0.060831662
104	0x3d94960a	0.0725518
105	0x3d42122c	0.04738061
106	0xbbb20ed4	-0.0054338966
107	0xbd915dbc	-0.070979565
108	0xbcdfec19	-0.02733426
109	0xbda4eea9	-0.08053333
110	0xbd0157ae	-0.03157776
111	0xbbbca998	-0.005757522
112	0xbdcc67e7	-0.09980755
113	0x3d9fc662	0.078015104
114	0x3d820d70	0.06350219
115	0xbd9ddf48	-0.07708603
116	0x3d3afa9a	0.04564915
117	0xbd97c7fe	-0.07411192
118	0x3d6cc8a5	0.057808537
119	0xbc531b0b	-0.0128848655
120	0x3cb4293c	0.021992318
121	0xbcf8f0d5	-0.030388275
122	0xbd6d1031	-0.05787677
123	0xbd927d74	-0.071528345
124	0x3da0bb40	0.07848215
125	0x3cf4fd2e	0.029905882
126	0xbc989cc2	-0.018629435
127	0xbe184898	-0.14871442
128	0xbc184f0a	-0.009296188
129	0xbd74d9d4	-0.05977805
130	0x3da3c297	0.079960994
131	0xbd09e389	-0.03366426
132	0xbd53c00f	-0.051696833
133	0x3e5a7813	0.21334867
134	0xbda97fc4	-0.082763225
135	0xbd515e12	-0.051115103
136	0x3e3a36e9	0.18185009
137	0xbd353aef	-0.044245657
138	0x3c732899	0.014841222
139	0x3e3c60d1	0.18396308
140	0xbe34fee8	-0.17675364
141	0xbda68042	-0.08129932
142	0x3d93fc3b	0.072258435
143	0x3bb68c83	0.0055709495
144	0xbd446b47	-0.04795387
145	0xbd90debc	-0.07073733
146	0x3d13a0f5	0.036042172
147	0x3e18c347	0.14918242
148	0x3d5d5f39	0.05404589
149	0xbdbcab36	-0.092123434
150	0xbd8d6229	-0.06903488
151	0x3cb471b8	0.022026882
152	0x3d8ed3dc	0.06974003
153	0x3c53c510	0.012925401
154	0x3cd9d889	0.02659251
155	0x3d7777c6	0.06041696
156	0xbe76c0ee	-0.24097034
157	0x3c5778eb	0.013151388
158	0x3d87ac21	0.06624628
159	0x3e27a5d3	0.1637185
160	0x3e22ebb0	0.1591022
161	0xbe0f52cb	-0.13996427
162	0x3deed061	0.11660839
163	0x3afb8892	0.0019190481
164	0xbd9f0b60	-0.077658415
165	0xbc86d683	-0.016459709
166	0xbc27b872	-0.010236846
167	0xbe55dc86	-0.20884904
168	0x3c50a384	0.012734298
169	0xb6c7a811	-5.9502277e-06
170	0xbdb1ffae	-0.08691345
171	0x3d6a4d0e	0.05720239
172	0x3ccbc1b4	0.024872638
173	0x3d334a81	0.043772224
174	0xbe1268ee	-0.1429784
175	0xbd0da0ba	-0.03457711
176	0x3cfbbdc3	0.030730134
177	0xbd823d12	-0.063593045
178	0xbd052040	-0.03250146
179	0x3d19bf72	0.037536092
180	0xbbd13752	-0.0063847685
181	0xbd705316	-0.058672987
182	0x3d156eb1	0.036482517
183	0x3d35c3d2	0.044376202
184	0x3d9fea3b	0.07808348
185	0xbd1c923d	-0.0382254
186	0xbdeca800	-0.11555481
187	0xbd127297	-0.035753813
188	0xbd19c6de	-0.03754317
189	0xbe1a5725	-0.15072306
190	0x3e179e50	0.14806485
191	0x3dc2a5fa	0.09504314
192	0x3d2c01a9	0.04199377
193	0x3dc3d569	0.09562189
194	0x3d404259	0.046938274
195	0x3e156ee1	0.14593078
196	0x3d373f7f	0.04473829
197	0xbd8a8401	-0.06763459
198	0x3e2abb18	0.16672933
199	0x3d11b190	0.035569727
200	0xbc8e7eaf	-0.017394392
201	0xbc9f1960	-0.01942128
202	0x3d6b27a6	0.05741086
203	0x3d4e51fc	0.050371155
204	0xbcafe005	-0.021469126
205	0xbcf8bed9	-0.03036444
206	0x3e168885	0.14700516
207	0x3ce0b3f4	0.027429558
208	0xbd2abe09	-0.041685138
209	0x3e0b9c18	0.13633764
210	0xbc21000b	-0.00982667
211	0xbde1a306	-0.110174224
212	0x3d819e11	0.06328977
213	0x3e29b998	0.16574705
214	0x3d61f34f	0.055163678
215	0xbe1ebd6c	-0.15501946
216	0x3d247ace	0.04015618
217	0x3e4d700a	0.20062271
218	0x3d968685	0.07349876
219	0x3e5c2ec7	0.21502219
220	0x3da487ec	0.080337375
221	0x3cf4e61f	0.029894887
222	0x3d0025ba	0.03128598
223	0x3df9c84b	0.12196406
224	0xbe20cfc7	-0.15704261
225	0x3d6255b5	0.055257518
226	0x3d713d71	0.058896486
227	0xbcba90ad	-0.022774065
228	0xbd20d5b4	-0.039266303
229	0xbd742c67	-0.059612658
230	0x3e0a8c0b	0.13529985
231	0xbdd2d5b6	-0.102946684
232	0xbdce7eee	-0.10082804
233	0x3d6fd1cd	0.05854969
234	0xbcf6803f	-0.03009045
235	0x3d5734df	0.052540656
236	0x3e605cd9	0.21910419
237	0xbdf7d091	-0.12100328
238	0x3d902bd3	0.07039609
239	0x3e194403	0.1496735
240	0xbe1fe4c8	-0.15614617
241	0xbd43b9b8	-0.047784537
242	0xbd5d068d	-0.053961325
243	0x3d0623ac	0.032748863
244	0xbd128551	-0.03577167
245	0xbe7c8d4c	-0.24663275
246	0xbda1efc0	-0.07907057
247	0x3da8150d	0.0820714
248	0x3cdb253e	0.026751157
249	0xbe68b3e2	-0.2272487
250	0xbce2ead2	-0.027699862
251	0x3e313be0	0.17307997
252	0xbe1bf350	-0.15229535
253	0xbe021485	-0.1270314
254	0x3e17683b	0.14785855
255	0x3d81e3da	0.06342287

policy_head.bias f4 [9]
0	0xbdeec53d	-0.11658714
1	0x3cd73017	0.026268048
2	0xbc234e1d	-0.009967354
3	0x3d4eda61	0.05050123
4	0xbdd8fd3d	-0.10595176
5	0x3db94610	0.090465665
6	0x3ca8e68e	0.02061775
7	0xbd881440	-0.066444874
8	0x3c34ec47	0.011042661

value_head.weight f4 [1, 128]
0	0x3d536c99	0.05161724
1	0xbd7cd573	-0.061727
2	0xbd985390	-0.07437813
3	0x3d4c29e7	0.04984465
4	0xbdbf288f	-0.09333908
5	0x3a8dd0cb	0.0010819671
6	0xbc266455	-0.010155757
7	0xbd3304c5	-0.04370572
8	0x3d27f318	0.041003317
9	0x3dab1355	0.08353297
10	0xbd951863	-0.07280042
11	0x3c8305c0	0.015993953
12	0x3d13af0a	0.036055602
13	0xbd2b6f75	-0.04185434
14	0xbcea1cab	-0.028578123
15	0xbadba2f6	-0.001675694
16	0xbca2bdac	-0.019865833
17	0xbd60c17e	-0.05487203
18	0xbc52eef6	-0.012874356
19	0x3d8a6c2e	0.06758915
20	0x3c94b49a	0.018152524
21	0x3d665226	0.056230687
22	0xbd34007a	-0.043945767
23	0x3b1ebdb3	0.0024221956
24	0xbcf6c871	-0.030124875
25	0xbb9f5d0f	-0.0048633884
26	0xbda5abdd	-0.08089421
27	0xbb68a593	-0.003549908
28	0xbcae49b6	-0.021275382
29	0xbcf02f9e	-0.02931958
30	0x3d5a99d8	0.053369373
31	0xbc80b5f4	-0.015711762
32	0x3cdf90e0	0.027290761
33	0x3da40199	0.08008117
34	0x3d7732e9	0.060351286
35	0x3c1b22ea	0.009468773
36	0xbc343f9b	-0.011001493
37	0xbd915936	-0.07097094
38	0x3d6cface	0.057856373
39	0x3d3974ba	0.045277335
40	0xbd6b6260	-0.057466865
41	0xbd825221	-0.06363321
42	0xbc1676e1	-0.009183616
43	0xbd9d72a8	-0.076878846
44	0xbd83fa6d	-0.06444249
45	0xbce1ac8e	-0.0275481
46	0x3d7a168d	0.061056662
47	0xbd21211f	-0.039338227
48	0x3d922835	0.07136575
49	0x3cf99325	0.030465672
50	0xbd810b3b	-0.0630097
51	0x3d0081b2	0.031373687
52	0x3d4fa3a2	0.05069316
53	0xbd568a4a	-0.052377976
54	0xbda32d7f	-0.07967662
55	0x3c0eb611	0.0087104
56	0xbd69dd45	-0.057095785
57	0xbbc3d24c	-0.005975997
58	0x3dc6034f	0.096686
59	0xbda414f7	-0.08011811
60	0xb9e8fbe0	-0.0004443815
61	0x3d8a4c24	0.06752804
62	0x3da9252e	0.082590446
63	0xbb2a29d9	-0.0025964885
64	0xbbcfc6ad	-0.0063408227
65	0xbcda761c	-0.026667647
66	0xbceceda4	-0.02892191
67	0x3d8591f9	0.06521983
68	0xbc8222b7	-0.015885694
69	0xbd337fd9	-0.043823097
70	0xbc352db0	-0.011058256
71	0x3b6db01b	0.0036268297
72	0x3cd39933	0.025829887
73	0xbcb7bf3d	-0.022430057
74	0x3d851a37	0.06499141
75	0x3d03528e	0.032061152
76	0xbd15b89b	-0.036553007
77	0xbad0fb5a	-0.0015944049
78	0x3d8d9276	0.06912701
79	0xbcf02df0	-0.02931878
80	0x3c7d4160	0.015457481
81	0x3cfb8ab3	0.030705785
82	0xbd019f4e	-0.031646065
83	0x3d98af85	0.07455353
84	0xbc8fd9ee	-0.017559972
85	0x3bc5cce7	0.006036389
86	0xbd14e6ed	-0.03635304
87	0xbb30d5e1	-0.002698295
88	0xbda2ddce	-0.07952462
89	0x3d4905ba	0.049077727
90	0xbd926e86	-0.07149987
91	0xbbdd9b26	-0.00676288
92	0xbcb28360	-0.02179116
93	0xbc9d6d93	-0.019217288
94	0xbce230da	-0.027611185
95	0x3cb77c71	0.022398205
96	0x3d207c55	0.039181072
97	0xbb970b63	-0.0046095117
98	0xbd206b8e	-0.039165072
99	0x3d1497f8	0.03627774
100	0xbd2b882e	-0.041877918
101	0xbad9a539	-0.0016605026
102	0x3d3d9474	0.046284154
103	0x3da5db8a	0.080985144
104	0xb9bd15e0	-0.00036065187
105	0x3d8e9fec	0.069640964
106	0xbc3d3a06	-0.011549478
107	0xbb03480f	-0.0020031964
108	0x3d751636	0.059835635
109	0x3d63efa1	0.05564845
110	0xbb88616d	-0.0041620047
111	0xbca6f1e1	-0.020379009
112	0x3d06ff3f	0.032958265
113	0x3ca577e9	0.02019878
114	0xbd94b74e	-0.07261525
115	0xbd071200	-0.03297615
116	0x3d8d87fe	0.06910704
117	0x3d0f1eb1	0.03494138
118	0x3d9fc1af	0.07800614
119	0x3d13c5ff	0.036077496
120	0x3d20804c	0.039184853
121	0xbc2b802a	-0.010467568
122	0xbd1d76a5	-0.038443226
123	0xbc71dbf7	-0.014761916
124	0x3d312e5e	0.04325711
125	0x3d1978f3	0.03746886
126	0x3d872151	0.065981515
127	0xbcd647c7	-0.026157273
