models/dqn/model.pth (torch, 110888 bytes, 8 tensors)

model.0.weight f4 [128, 12]
000000 fd 27 1c be 35 d1 71 3e 4c ec 00 bf 32 07 bf 3e
       -0.1524963 0.23614962 -0.5036056 0.37310177
000010 a5 7e 09 3d 2f 3a c6 be ed be 55 3d a3 51 fa 3e
       0.033568043 -0.38716266 0.052184034 0.4889041
000020 ad 27 c3 3d f1 fd 95 3d 2f 20 20 bf 9e f6 db 3e
       0.09529052 0.07323826 -0.6254911 0.4296159
000030 ab 19 12 bf d7 20 31 3e eb 40 40 3d c5 31 11 bc
       -0.57070416 0.17297684 0.04693691 -0.008861964
000040 e2 f1 72 3e dd c6 f5 3c 83 d5 3d 3d f0 be 51 3e
       0.23725083 0.030002052 0.0463462 0.20482993
000050 74 93 a7 bd 5c 37 8f 3d 2a 54 d1 be a6 98 8e be
       -0.08182421 0.06992981 -0.40884525 -0.27850837
000060 c0 5b 1b bd fa 5f 18 bf 86 b1 30 bf 33 6e 2b be
       -0.037929296 -0.5952145 -0.6902088 -0.16741256
000070 26 91 18 be ef 85 82 be 21 6c 6c 3e 5e 98 9b 3d
       -0.1489912 -0.25492808 0.23088123 0.07597421
000080 89 22 4e 3d d9 d9 b7 be a6 4e 6b be 5d 27 82 be
       0.050325904 -0.35908392 -0.22979221 -0.25420657
000090 ec cf 87 bd 26 85 1b be 97 b0 3e be b4 54 99 3d
       -0.06631455 -0.15187511 -0.18622051 0.07486859
0000a0 16 c8 06 3e 89 7d 3a be 61 ba 69 be 50 44 2b 3f
       0.13162264 -0.1821195 -0.22825004 0.6690111
0000b0 96 78 e0 3d 4d c0 51 3f d6 4d a5 3c a8 20 1e 3e
       0.109605 0.8193405 0.020178717 0.15442145
0000c0 9f 3e f8 3d d7 f5 32 3f b5 bd e7 be fb 39 91 be
       0.12121319 0.6990637 -0.45261922 -0.28364548
0000d0 1d ea 88 3e 0b 82 31 3e a6 04 57 be 64 5b b7 3e
       0.26741114 0.17334764 -0.20997867 0.35811913
0000e0 5c f4 41 3f e5 2c 1f 3f a3 66 cb 3c 98 df b1 3d
       0.7576349 0.6217788 0.024829214 0.08685225
0000f0 30 68 19 3e 5f 10 86 be 3a 83 ad 3e 37 7f 9b be
       0.1498115 -0.26184365 0.3388918 -0.30370495
000100 e5 0f 0f 3e 1c 7c 62 3c e4 f7 09 be 85 79 db bd
       0.13970907 0.013823535 -0.13473469 -0.107165374
000110 94 a7 bd 3e 2b b8 f1 3e 00 16 5f bf b8 de 02 3e
       0.37041914 0.47210822 -0.87142944 0.12780273
000120 d8 9d fc bd 2f b2 ae be 6a 13 0a 3e bf 49 bf be
       -0.12334794 -0.34120318 0.13483968 -0.3736095
000130 1f da 27 be 40 f3 e9 3d c1 cc 84 be 3d 78 8a be
       -0.163918 0.114233494 -0.25937465 -0.2704486
000140 49 5b 07 3f f8 09 8a bc 0f 43 ba 3e 6d dc 56 3a
       0.52873665 -0.016850457 0.36379287 0.0008196298
000150 b3 36 86 bf 5d ca 04 bf 6b 67 8e 3e 7f 43 65 3e
       -1.0485443 -0.5187128 0.27813277 0.22389029
000160 99 56 7a 3e 05 30 0d be cf c1 99 3d 63 41 b5 bd
       0.24447097 -0.13787849 0.07507669 -0.08850362
000170 8f 1a d8 3e 75 74 a2 3e 7f 89 0c bf 87 b9 8d be
       0.42207763 0.31729475 -0.548973 -0.2768061
000180 61 b7 a2 be ae b6 35 3e e1 02 06 be 51 8a 1b 3f
       -0.31780532 0.17745468 -0.13087036 0.6075793
000190 19 86 ea 3d b6 e1 bb be 73 d4 22 3e de ec f4 3e
       0.11451358 -0.3669564 0.15901355 0.47836965
0001a0 78 32 31 be 4e 7b 3a bf 82 76 77 3c ac 6e 83 3d
       -0.17304409 -0.728444 0.015103938 0.06417593
0001b0 f1 ac 8a bf 1e f4 21 bf c4 9b d4 be c9 2b 93 3e
       -1.0834028 -0.6326312 -0.4152509 0.28744343
0001c0 1d 44 7a be 86 d6 1f 3e f6 26 0b 3f e0 e1 99 3e
       -0.24440046 0.15609178 0.54356325 0.3005514
0001d0 40 5c c0 3e 72 2c c2 be 14 d3 64 bf 29 1c 5a be
       0.3757038 -0.37924534 -0.8938458 -0.21299805
0001e0 4d 7e 65 bf 3e 95 ed be 3d 4e ee be 36 40 f7 bd
       -0.89645845 -0.46402925 -0.46544066 -0.12072794
0001f0 f9 55 f2 bd ca 29 96 be c3 ae e9 3e 74 07 76 be
       -0.11832804 -0.29328758 0.45641145 -0.2402628
000200 64 f9 de 3e f7 d6 46 3f 9c bb 37 bf df e7 5f be
       0.43549645 0.7767176 -0.71770644 -0.21865796
000210 87 a4 20 bf 3e 7f 5b 3e bb f4 be 3e 24 8c 9c bc
       -0.6275105 0.21435258 0.3729609 -0.019109793
000220 7d 29 01 bd 40 36 c6 bd 63 6d df 3e d9 8b e4 be
       -0.031533707 -0.09678316 0.43638143 -0.44637945
000230 6e a9 0e 3d 7c c8 0f 3f 1a d4 22 bf fd 18 06 3e
       0.03482955 0.5616529 -0.6360489 0.1309547
000240 98 27 5a bf e8 ba c6 bd d2 e0 23 be b9 5a 39 3e
       -0.85216665 -0.09703618 -0.16003731 0.18101014
000250 a1 05 1e 3e 58 b1 d9 bc 3b fd c0 be e7 19 c0 bd
       0.15431835 -0.026573822 -0.376932 -0.093799405
000260 8a 5e 05 bf 35 97 00 3e c5 da c9 3e 38 2f 83 bc
       -0.5209738 0.12557681 0.3942472 -0.016013727
000270 c3 9c d8 be 09 e8 14 3e 56 42 9d 3e 91 9a f3 3d
       -0.423071 0.1454164 0.30714673 0.118947156
000280 8c 75 4a be 74 55 3b 3e 9d a8 4c bc 00 41 8c bd
       -0.19771403 0.18294317 -0.012491372 -0.06848335
000290 40 9b 83 be 94 dc 92 3e f0 91 f9 be 0b 78 9c bd
       -0.25704384 0.28683913 -0.48744154 -0.07640084
0002a0 54 bf 7b be 00 1b 95 bd 99 c0 19 3f 44 73 10 3e
       -0.24584705 -0.072805405 0.60059506 0.1410647
0002b0 75 3f 64 ba 37 e4 3b be 41 00 a3 3e ae 09 3e bc
       -0.00087069656 -0.18348776 0.3183613 -0.0115989875
0002c0 94 05 ec be 00 77 3e 3f 34 43 1d bf 7d 01 10 be
       -0.46098006 0.7440033 -0.6143067 -0.14063068
0002d0 4e 15 21 bf 85 ca 0e bf 68 9c 40 be 6d 0a bf 3e
       -0.62923133 -0.5577777 -0.18809664 0.37312642
0002e0 10 8f 96 bd f2 02 9e 3e 2d 61 3d be d4 be 8b 3e
       -0.07351506 0.30861622 -0.18494101 0.27294028
0002f0 16 bb e9 bd fa 16 11 bf 14 ae 83 be a3 8b 8c be
       -0.11412637 -0.56675684 -0.2571875 -0.27450284
000300 a9 6c af 3c 09 24 82 bf 15 0d c0 3e 43 60 c1 3e
       0.021414118 -1.0167247 0.3750998 0.37768754
000310 7d f7 29 bd f1 c2 29 3f ca f4 ef be 2e 32 a7 3d
       -0.04149579 0.6631308 -0.46866447 0.08163868
000320 32 8b a3 be da 54 52 bf e4 a7 18 3e 51 6d 58 3e
       -0.31942135 -0.82160723 0.14907795 0.21135451
000330 a3 6f 0b be 89 0c 4c bf b3 23 e0 3e 81 a8 aa 3e
       -0.13616805 -0.7970663 0.43777236 0.33331683
000340 0c 3e 62 be dc 24 e4 3e 3f 8a 8e bd a3 a6 8a 3e
       -0.22093982 0.4455937 -0.06959962 0.2708026
000350 29 9e 89 be 0d a2 8c bf 78 bc bd 3d 65 d9 58 bd
       -0.2687848 -1.0986954 0.09264463 -0.0529417
000360 79 7f 2d bd f3 91 a0 be 69 79 cc be a1 8a 81 3e
       -0.042357896 -0.3136135 -0.3993638 0.25301078
000370 7a 86 95 be 8b ce 28 3c b5 02 d7 3d 20 1a 72 be
       -0.2920416 0.01030315 0.10498563 -0.23642778
000380 ff 46 02 bf 35 c0 48 be be 96 4e bf 09 6e 96 be
       -0.5088958 -0.19604571 -0.80698764 -0.29380825
000390 79 83 d6 be e5 f7 56 3d 74 21 c5 3d 47 79 5e 3d
       -0.4189718 0.052482504 0.09625521 0.054314878
0003a0 e9 46 88 be 4e 2a 4a 3e 55 c5 32 bd 26 36 0b 3c
       -0.266166 0.197427 -0.04364522 0.008496797
0003b0 d5 3e 38 3c 7d 16 38 bf 1c a7 96 bf 68 94 62 3e
       0.011245449 -0.71909314 -1.1769748 0.22126925
0003c0 d6 46 97 bf 5d 0f cc 3e 6b 3f f5 3d 1b ce 65 3e
       -1.1818492 0.3985547 0.11974987 0.22441904
0003d0 91 0d 4f 3e 52 7a ae bd cb 3b 90 be 78 03 ae be
       0.20220019 -0.085194245 -0.28170618 -0.3398702
0003e0 b7 bc 3f be a2 2d d7 be 8a b6 57 bf 5b ca b3 3e
       -0.18724333 -0.42027003 -0.8426291 0.35115322
0003f0 19 b0 ad 3e 80 95 ee bd 85 34 6d be 9e 6f 66 be
       0.33923414 -0.116496086 -0.23164566 -0.22503516

model.0.bias f4 [128]
000000 9c 86 03 3c df b4 17 bf 7f 29 cc 3e 09 d5 37 bf
       0.008027699 -0.5926036 0.3987541 -0.7180944
000010 6c d4 2b bf 3b 02 30 bf 3b 91 23 bf 88 2b 36 3e
       -0.67121005 -0.68753403 -0.6389348 0.17790043
000020 85 58 85 be 6e 88 85 be db 37 90 be 9f 0c 2f bf
       -0.26044098 -0.2608065 -0.28167614 -0.68378633
000030 c7 3b 20 bf 91 54 91 be 85 1d 11 bf 09 09 d5 3e
       -0.62591213 -0.28384832 -0.5668567 0.41608456
000040 ae 5c 04 bf a0 41 23 bf 88 c5 27 bf 54 2c 78 be
       -0.5170392 -0.6377201 -0.65535784 -0.2423566
000050 87 f7 2a 3f a3 15 e7 be bc 9f f3 bd 8e fc 36 bf
       0.66783947 -0.45133695 -0.11895701 -0.7147912
000060 61 c3 85 be 65 e0 39 bf df ee ae 3e 7a 0d a7 be
       -0.26125625 -0.72608024 0.3416662 -0.3262747
000070 47 cb 13 bf 8f ac 44 bf 61 8c 9e 3e a3 df 05 bf
       -0.5773205 -0.76825804 0.30966476 -0.5229437
000080 a9 6b c0 be f6 56 cd be 5c d3 01 bf d4 c5 99 3d
       -0.37582138 -0.40105408 -0.50713134 0.07508436
000090 50 87 fe 3e 9c 78 01 bf 89 af ee bd bf 64 a4 be
       0.4971261 -0.5057466 -0.116545744 -0.32108113
0000a0 59 2e 3d be 16 64 9c be 39 56 29 bf 71 3b d9 bc
       -0.18474711 -0.3054511 -0.6614719 -0.026517602
0000b0 a6 3d a9 3e 82 1c 4b bf 62 e0 01 be 4a 10 02 bf
       0.33054847 -0.79340374 -0.12683252 -0.50806105
0000c0 dd 25 f5 be 96 d5 90 be b2 95 56 bf 84 44 de bd
       -0.4788045 -0.28287953 -0.83822167 -0.10852912
0000d0 8a 56 f7 be f2 86 5e bf f7 48 03 3d 92 37 14 bf
       -0.48308212 -0.8692466 0.032052007 -0.57897294
0000e0 72 b4 fa be 25 e5 39 be 14 4c 0f bf 61 4e 4c be
       -0.48965794 -0.18153818 -0.5597546 -0.19951774
0000f0 b6 1a e3 be 48 38 42 bf 00 0e 26 bf 54 95 8e bd
       -0.44356316 -0.7586713 -0.6486511 -0.06962076
000100 be 5e 52 be 15 d0 2b bf 1c 27 91 be cc 81 ba be
       -0.20543954 -0.67114383 -0.2835015 -0.36427152
000110 be 8d db be 55 d2 b2 be aa cb 1a bf 1e b8 17 3f
       -0.42881578 -0.34926096 -0.60467017 0.59265316
000120 f0 ac f5 be 1c e7 f6 be 1e ad 12 bf e2 42 38 bf
       -0.47983503 -0.48223197 -0.57295406 -0.71977055
000130 eb 4e 0c bf 2a bd 06 bf 84 a6 37 bf 6e 7b f3 bd
       -0.5480792 -0.5263239 -0.7173846 -0.11888777
000140 f7 01 14 bf 10 94 ea be 9b 9a 27 bf 7f f9 b4 be
       -0.578155 -0.45816088 -0.65470284 -0.353466
000150 93 8d 0c bf d0 b0 f6 3e 0c 75 b1 be 79 1a e8 be
       -0.54903525 0.48181772 -0.34659612 -0.45332697
000160 c3 92 76 be 37 14 c9 be 37 0f e8 be ee 47 98 be
       -0.24079423 -0.39273235 -0.45324108 -0.29742378
000170 0c ac 00 bf bd ef 0f bf c0 f0 a2 3e c7 62 f8 3e
       -0.5026252 -0.56225187 0.31824303 0.4851286
000180 54 1a d6 be eb 80 18 bf 8d 6b 86 3e 12 6b 6c be
       -0.41816962 -0.59571713 0.2625393 -0.23087719
000190 54 a8 ce bc 16 98 b7 be 6a fb f5 ba 23 22 30 bf
       -0.02522675 -0.3585822 -0.0018766944 -0.6880209
0001a0 b0 dc 3c bf 88 fe 9a be 38 42 ab 3e 01 e1 0a bf
       -0.7377424 -0.30272317 0.33448958 -0.5424958
0001b0 a5 7b eb 3e 34 cb 12 bf 1a 2a ea be f4 e5 59 be
       0.4599277 -0.57341313 -0.45735246 -0.21279126
0001c0 b9 9e 31 bf ff 5a a9 be 39 1e 25 bf 67 4b 06 be
       -0.69382817 -0.33077237 -0.6449924 -0.13114701
0001d0 3a 7b b1 be 5e 2f 05 bf 29 c0 0d bf 1e af 66 bf
       -0.34664327 -0.520254 -0.5537134 -0.9011096
0001e0 7e 00 cd be b1 70 c2 3e 1c 99 b7 bd a2 a0 be be
       -0.40039438 0.37976602 -0.0896475 -0.37231928
0001f0 47 25 1e bf 8d 70 41 bd 6f ea d9 3e e2 86 ca 3e
       -0.6177563 -0.047226477 0.4256167 0.39556032

model.2.weight f4 [128, 128]
000000 8b c3 01 3e 69 17 8e bc 0b 98 ae 3e ab 87 6e be
       0.1267225 -0.017345147 0.34100375 -0.2329394
000010 5a 6c f9 bd cc 0c ae bf 85 14 63 be ba d2 9f be
       -0.121788695 -1.3597655 -0.22175796 -0.3121546
000020 4e 1a b6 be ea 7f cd 3e d0 cd 5b be 7f 67 21 3e
       -0.35566944 0.40136653 -0.2146523 0.15762137
000030 17 d5 49 bf 03 f0 30 3d d4 89 cc bd 37 ed 81 bd
       -0.78840774 0.043197643 -0.09987226 -0.06344073
000040 fb 82 fa 3e 5a 32 da 3e c2 69 1a bd 0d 91 8e bd
       0.48928055 0.4261654 -0.037698515 -0.0696126
000050 13 fe 5a 3e 86 99 89 be d1 d0 ea 3e 1f 89 38 bf
       0.21385984 -0.26874942 0.4586244 -0.7208423
000060 a6 98 03 3f e9 1d 39 bf e2 09 9b 3d 8c cb 99 bf
       0.514048 -0.72311264 0.07570244 -1.2015243
000070 04 5c 63 be 14 c0 06 3d 92 4b 7e 3e 4f 58 06 bf
       -0.2220307 0.032898024 0.24833515 -0.524785
000080 b8 71 4a bd 60 76 04 be 32 5a ac 3d 81 a4 2b 3f
       -0.049424857 -0.12935781 0.08415641 0.6704789
000090 c1 60 94 3e 60 13 d6 bd 3f 41 f0 3d 63 f0 80 be
       0.28980067 -0.10452914 0.11731195 -0.251834
0000a0 95 48 9b 3c 47 b1 61 bb f6 c1 03 3e 87 86 b6 bd
       0.018955508 -0.003443794 0.12866959 -0.08912378
0000b0 1b a2 e6 3d d4 7d 34 3f 85 ae 63 3e fe 14 06 be
       0.11261388 0.705045 0.22234543 -0.13093945
0000c0 c5 51 5e be 03 d5 3f 3e ad 72 a2 3e 77 c5 b8 bc
       -0.2171088 0.18733601 0.31728116 -0.022555096
0000d0 66 57 a0 be 2e ad 11 bf 2d f4 3e 3e 96 e7 03 3f
       -0.3131668 -0.56904876 0.18647833 0.5152525
0000e0 14 39 2a 3b e2 9b 0f 3f 98 ea 23 3f 43 77 fb be
       0.0025973963 0.56097233 0.64029837 -0.49114427
0000f0 0f d6 81 bb 57 6a 4c be f7 95 19 bf c8 dc 53 3e
       -0.0039622854 -0.1996244 -0.59994453 0.2068969
000100 67 23 5b 3e 39 68 a1 bf 65 79 92 3c dd 55 1d 3e
       0.21400224 -1.2609931 0.017880151 0.15364785
000110 b5 c5 50 3e 04 6f 01 be 9e 8d 56 be 75 b2 1e be
       0.20387919 -0.12640005 -0.2095246 -0.15497763
000120 1e dc 85 be 27 a2 84 bf 49 59 aa 3e fd 73 d5 bc
       -0.261445 -1.0361985 0.33271244 -0.026056284
000130 00 99 dd bb 29 4b 53 bf 88 9f dc be 9d f7 b2 be
       -0.006762624 -0.8253656 -0.43090463 -0.3495454
000140 84 4b ce bd 84 62 11 bf c4 f9 2e be 01 25 97 bd
       -0.10072997 -0.5679095 -0.17087466 -0.07380105
000150 3c 8f 49 3d 3c a9 e0 3e 7d df 8c be 87 d1 c2 bf
       0.049208865 0.43879116 -0.27514258 -1.5220193
000160 72 88 79 bd a9 f4 7e be 40 8e ba 3e 21 15 f0 3c
       -0.06092114 -0.24898018 0.36436653 0.02930695
000170 70 ed 98 be 21 7e 49 bf c1 e5 a3 3e 02 f1 85 3d
       -0.2986865 -0.7870808 0.32011226 0.06540109
000180 c9 16 25 c0 69 32 aa bd c0 f5 c8 bd 0a 63 d0 3d
       -2.5795157 -0.08310396 -0.09812498 0.1017514
000190 b6 cf 68 3f 00 50 fb be 9d d6 1e 3f 27 c8 45 bf
       0.9094194 -0.49084473 0.62046224 -0.77258533
0001a0 a3 61 c4 be 47 19 d4 3e 5d d0 27 bc da 35 9c be
       -0.3835574 0.41425535 -0.010242549 -0.30509835
0001b0 d4 d4 4a be 9f 74 cc be ab 97 1c 3f f1 d9 0b c0
       -0.1980775 -0.39932725 0.61168927 -2.185177
0001c0 8b 86 15 bd 81 6a e8 bd 66 2d 44 bf 3d f8 5c bd
       -0.036505263 -0.11348439 -0.7663177 -0.053947676
0001d0 e2 41 96 be f4 ff 92 be 2c e0 22 3e ab 06 12 bf
       -0.2934714 -0.28710902 0.15905827 -0.57041425
0001e0 48 12 07 bd 96 ac 5c 3e eb e9 84 3e a1 78 dc 3d
       -0.03297642 0.21550211 0.25959715 0.10765196
0001f0 86 43 ae bd c5 72 9e be f7 c2 5e be ce cc de bc
       -0.08508973 -0.30946937 -0.2175406 -0.027197268
000200 c9 2f a6 be 5f f7 b3 3e 7e e4 1c bf be 61 81 bf
       -0.32458332 0.35149667 -0.6128615 -1.0107954
000210 62 10 07 3e 5c 37 3b bf 72 53 4e 3d 18 df 41 bf
       0.13189843 -0.73131347 0.05037255 -0.7573104
000220 b5 ea 69 be 3f 12 50 3e 01 0c 90 bf e4 cb 58 bd
       -0.2284344 0.2031946 -1.1253663 -0.05292882
000230 e1 3f 3c 3e cb fa 8a 3e 35 5e 83 3e c9 5b 18 3d
       0.18383743 0.27144465 0.25657812 0.03719691
000240 7d 36 71 3e 44 41 e8 be 2a 5e 19 3f f8 d9 7c be
       0.23555942 -0.45362294 0.5990931 -0.24692523
000250 90 20 f3 bd 56 19 97 bf d5 b5 19 bd a6 ad f5 3e
       -0.11871445 -1.1804607 -0.037526924 0.47984046
000260 e6 0f 40 3f c3 46 14 be 57 fe a3 be 06 25 dc be
       0.7502426 -0.14480118 -0.32029983 -0.42996997
000270 93 d5 8c 3e 82 eb 6b bb 31 2d 95 be a9 a7 eb be
       0.27506694 -0.0035998528 -0.2913604 -0.46026352
000280 57 a1 38 bf c3 14 9b bf 1f 16 ca 3e ac 9a 2c bd
       -0.72121185 -1.2115711 0.39470002 -0.042139694
000290 c2 02 6e bf 98 ac 64 be c0 50 b4 3d ce bc 06 3e
       -0.9297296 -0.22331464 0.08804464 0.13157961
0002a0 a5 56 29 bf 5f 27 0b 3f 6c 7e 63 3e 33 ea 57 3e
       -0.66147834 0.5435695 0.22216195 0.21085434
0002b0 7e fa 02 bf dc 4f 9e be 85 c5 8a be 3e 1a ae bd
       -0.5116347 -0.30920303 -0.2710382 -0.08501099
0002c0 41 cd 19 be 26 ba 47 bf 68 49 00 3f d0 23 f9 bd
       -0.15019704 -0.78018415 0.5011201 -0.12165034
0002d0 29 1a b8 be a7 c9 01 be 98 fe ea be da 92 a5 be
       -0.3595746 -0.1267458 -0.45897365 -0.323386
0002e0 4c 97 1e 3d 4b 7a 62 3e 86 55 8c 3e be b6 47 3c
       0.038718507 0.22116964 0.27409 0.012189565
0002f0 91 41 88 be 62 cc f9 3c 89 79 98 3d 7e 11 16 bf
       -0.26612523 0.030492965 0.07445056 -0.5862044
000300 66 44 61 3f 8c 25 5a bf 6b b6 37 3e 59 2b b9 bd
       0.8799499 -0.8521354 0.1794068 -0.09041471
000310 6b a4 c6 3e 42 75 19 bf 46 f3 95 3c 61 ae 1a bf
       0.38797316 -0.59944546 0.018304478 -0.6042233
000320 d0 4c cb bd e8 e1 06 be ab 5c 5a 3e 44 c9 d9 3c
       -0.0992676 -0.13172114 0.21324413 0.026585229
000330 18 3d 54 bb 47 4a f6 3d 9b 3c a2 bf 37 10 0b be
       -0.0032385048 0.12025886 -1.2674745 -0.13580404
000340 3a e7 0e 3f 73 1b d3 be 1b ae 3f be 6d 4f 22 bf
       0.55821574 -0.4123188 -0.1871876 -0.63402444
000350 b7 94 09 bf 2b 16 a0 bc 26 ef d0 3d e0 b9 8f 3e
       -0.53742546 -0.01954182 0.10201864 0.280715
000360 b6 69 52 3e 6a 2a b7 3e ed d9 7a be 59 d0 43 3e
       0.20548138 0.35774547 -0.24497195 0.19122447
000370 67 83 c3 3e a4 82 ac be 64 33 8e be b1 d8 04 bf
       0.3818619 -0.3369342 -0.27773583 -0.51893145
000380 6a 3c 61 be d2 c9 1a bf 15 f5 a6 3e a0 26 21 bf
       -0.21995702 -0.60464203 0.32608858 -0.6294956
000390 4c f1 2d 3e f5 c2 46 bf 4b 38 87 3c 63 8a 67 3e
       0.16986579 -0.7764123 0.016506335 0.22611384
0003a0 04 f6 39 bf 7d 1b c9 be 5d 52 0b bf 87 c7 b5 bc
       -0.72641015 -0.39278784 -0.5442255 -0.022189869
0003b0 f5 a2 92 3b 1f 69 b8 be 7a ee a4 be 5c 4c 5b bf
       0.0044749924 -0.360177 -0.32213193 -0.8566339
0003c0 41 0c 12 bf 97 58 d4 bd 9d 6a 2f bf ed 5f a2 be
       -0.5704995 -0.1036846 -0.68522054 -0.3171381
0003d0 0d 89 04 bf ae b9 e7 bd e0 ed f1 3e b2 fc cb be
       -0.5177162 -0.113147125 0.47251797 -0.3984123
0003e0 e2 31 d9 3b 0c bf 92 3d 60 a6 88 be 3f ab 56 bd
       0.006628261 0.071653455 -0.26689434 -0.052409407
0003f0 d3 a7 0e 3e c1 c5 68 be 3d 23 06 be f9 07 b1 bf
       0.13931207 -0.22731687 -0.1309938 -1.3830558

model.2.bias f4 [128]
000000 42 7b 0c 3f 22 6b b4 be c4 e1 47 be e7 3b d6 bc
       0.54875576 -0.35237986 -0.19519717 -0.02615161
000010 17 55 f5 bb 83 ea 1b 3f 1b 44 ff 3b 18 1b c3 bd
       -0.00748695 0.6090471 0.007790101 -0.09526652
000020 b0 08 21 bd ad 6a ca 3e b8 7d 93 3e 97 65 89 3d
       -0.039314926 0.39534512 0.28806853 0.0670883
000030 69 c6 52 bb d0 97 41 3e 2e 47 0e 3e e6 a1 fe bd
       -0.0032161719 0.18905568 0.1389434 -0.124332234
000040 ec 37 9a 3e 42 15 29 3f fb 4e a0 3b 5b e9 86 3c
       0.3012079 0.6604806 0.0048922277 0.016468694
000050 ac 5f 0d 3d e9 4c bf 3e 3b e5 b7 3c c8 97 97 bc
       0.034515068 0.37363365 0.022448173 -0.018504992
000060 de df 24 be 39 fc 28 be df 43 48 3d dc 1f d4 3e
       -0.16101024 -0.16502465 0.048892852 0.41430557
000070 a8 98 aa be a6 d7 76 3f 02 79 d8 3c 50 ff 3b bd
       -0.33319592 0.96422803 0.026424889 -0.04589778
000080 32 9b d3 bc 32 28 86 be 16 d9 e7 3c 2b 9f fc 3d
       -0.025830839 -0.26202542 0.028301757 0.123350464
000090 e8 ef 22 3e 99 0d dc be 42 79 e8 bc 8a 1e 76 3f
       0.1591183 -0.42979124 -0.028378133 0.9614035
0000a0 44 19 2b bd 50 ba 21 be 15 42 e5 3d a1 a0 53 3e
       -0.041772142 -0.15793729 0.11194245 0.20666744
0000b0 0f f8 b1 bd 32 a9 52 3e 98 b5 f4 3d 11 4a b8 be
       -0.086898915 0.20572355 0.11948699 -0.35994008
0000c0 e0 18 14 be b6 e6 9f 3e ad ce fb be 47 77 a7 3d
       -0.14462614 0.31230706 -0.4918112 0.08177047
0000d0 62 f7 48 bd 51 c2 13 3d 13 55 48 be a3 d7 6b 3e
       -0.049064048 0.036073986 -0.19563703 0.23031478
0000e0 7b 70 2e 3f d9 d8 d4 3d 2b c3 22 bb 32 db 82 3d
       0.6814038 0.10392923 -0.0024835567 0.063894644
0000f0 89 8e b1 be 02 4b cb 3e cb 74 54 3d 0b b6 2b bd
       -0.34679058 0.39705664 0.051869195 -0.041921657
000100 fe ec d8 bd 68 2a 14 3f 7c 63 4b bd 39 85 e1 be
       -0.10592078 0.57877207 -0.049655423 -0.44046953
000110 82 e5 be bd 15 66 90 3e c7 13 93 bd 2c 29 4b 3d
       -0.09321119 0.28202882 -0.071815066 0.04959981
000120 fd 7f c9 bd 19 cc 7a be 03 12 36 3e ef 0c d1 be
       -0.09838865 -0.2449192 0.17780308 -0.4083018
000130 f7 00 5a 3f 49 b8 b2 bd c5 52 bd be f3 6e e0 bd
       0.8515772 -0.08726556 -0.3697721 -0.10958662
000140 a3 e0 a5 be 89 39 6c bd 68 57 cb 3e e8 7b aa be
       -0.32397947 -0.057672057 0.39715123 -0.33297658
000150 88 85 88 3d d1 2a f6 bc 98 51 9f be 01 21 e1 bd
       0.06666094 -0.030049713 -0.3111694 -0.10992623
000160 d6 53 a7 3c de 9e b8 be 02 3e a7 3e da c8 58 bd
       0.020425718 -0.36058706 0.32664496 -0.052925922
000170 94 59 cf bd 61 b3 63 be da d8 90 3f 66 07 1f 3e
       -0.101245075 -0.22236396 1.1316178 0.15530166
000180 52 6a 91 3e 58 35 f9 bc 91 b6 d4 bd b3 96 e6 3e
       0.28401428 -0.030420944 -0.10386384 0.4503685
000190 6d c7 0c 3e eb 49 97 bd 2d 63 56 3e 14 ea d1 3e
       0.1374795 -0.073871456 0.2093627 0.409989
0001a0 61 89 73 3f 84 4c 20 3d c6 a3 d9 be 9e b7 47 bd
       0.951315 0.03913547 -0.42507762 -0.048759095
0001b0 b5 c6 00 be f8 48 58 3d c3 4a ed 3d a3 ca a5 be
       -0.125758 0.052803963 0.11586525 -0.32381162
0001c0 59 00 8d be bb 4e 23 3f 60 08 37 bc 04 c0 0f be
       -0.27539328 0.6379201 -0.01117143 -0.14038092
0001d0 d0 d8 8b 3e 08 20 36 be 0c da 71 3f 27 7d 12 be
       0.27313852 -0.17785656 0.9447334 -0.14305554
0001e0 59 25 c6 bd 7e 46 c5 3d 3e 42 0a 3e e6 89 08 3e
       -0.09675092 0.09632586 0.13501832 0.13333854
0001f0 b8 ad 73 3f 5f b6 52 3d 2c f9 1f 3e 7c 7c 27 be
       0.9518695 0.051443454 0.15622395 -0.16356081

model.4.weight f4 [64, 128]
000000 f1 49 52 bd 29 cc d8 bc e4 6b 36 bd e2 37 25 bd
       -0.051340047 -0.026464539 -0.044536486 -0.040336497
000010 8e e8 63 bd d5 b7 04 3d 25 09 93 bd de f8 89 bc
       -0.055641703 0.03240188 -0.071794786 -0.016842302
000020 a8 3a a1 bd 84 4e 98 3b 98 d5 a6 3c 0c 66 80 bd
       -0.07872516 0.0046480317 0.020365521 -0.06269464
000030 9c b4 96 bd df 17 b4 bc be c3 c4 bd 92 e7 17 bd
       -0.07358667 -0.021984039 -0.09607647 -0.037086077
000040 3c ba 84 bc 22 c3 30 bc 1b 23 43 3d 4f 1f 31 bd
       -0.016202085 -0.010788711 0.0476409 -0.04324275
000050 39 49 1d 3d b4 d0 69 3c de 4d 11 bd d7 a0 26 bd
       0.03839991 0.01427095 -0.03547465 -0.040680733
000060 3d 15 62 bd d0 47 7a bd de f4 a7 bd e9 db 93 bd
       -0.055196036 -0.061103642 -0.082010016 -0.07219679
000070 dc 4a a8 bb 82 99 8b bd 95 e3 a7 bd a1 47 2f bd
       -0.005135877 -0.06816389 -0.08197705 -0.04279292
000080 7d e6 f8 bc 8b 86 cb 3c 82 9c 0d bc 49 ef bc bc
       -0.030383343 0.024844429 -0.008643271 -0.023063319
000090 23 b5 43 bc 4d 0b 3d 3c 24 fd db bc b7 f8 02 be
       -0.011945042 0.011538339 -0.026854105 -0.1279019
0000a0 e2 5b 7b bc ae 84 53 3d 8b 13 91 bd de 35 4f 3c
       -0.015341731 0.051640205 -0.07083806 0.01264712
0000b0 25 86 4e 3d b8 70 ca 3c 2b 15 3d 3d 8d ac 4c 3d
       0.0504209 0.024711952 0.046162765 0.049969245
0000c0 56 9a 49 bd e6 95 ac bd 48 99 db bd e0 1e 47 bc
       -0.04921945 -0.08427028 -0.107225955 -0.012153357
0000d0 92 ee 81 bd 41 1a 2f 3b 40 7a 6c 3d 02 b3 97 bd
       -0.06344332 0.002671853 0.057733774 -0.0740719
0000e0 31 fc f5 3c 67 3f 43 bc e3 e4 1a 3d fa db 9d bc
       0.03002748 -0.011916972 0.03781594 -0.019269932
0000f0 87 11 2e 3d ac c3 c6 bc d1 f0 d3 bc fb 3a c2 3c
       0.042497184 -0.024263225 -0.025871666 0.023709765
000100 f4 b1 89 3d 44 75 ad bd 1f 2d 83 bd 91 75 37 3d
       0.06723395 -0.08469632 -0.064050905 0.044789854
000110 3f d1 14 3d 53 c7 89 bb 95 89 2f bd 47 21 c0 bd
       0.036332365 -0.0042046695 -0.042855818 -0.09381347
000120 bd ef 26 bd bd 0c fa bd 66 9a fd bc 02 e4 31 bd
       -0.040755976 -0.12209461 -0.030957412 -0.043430336
000130 d2 d7 20 bd f9 e2 e3 bc b9 05 7c 3d bd 83 17 bd
       -0.039268322 -0.02781819 0.061528895 -0.03699087
000140 db a7 8f bd c1 59 e8 bc 5b f6 5b bc 50 b3 26 3b
       -0.07014438 -0.02836311 -0.013425435 0.0025436468
000150 99 88 51 bb 63 a4 2d 3d 25 38 d3 3b 05 1b ac bd
       -0.0031972288 0.0423931 0.006445902 -0.08403591
000160 79 9f b7 bc d6 c9 7d bc 69 f0 13 3d 30 e5 aa bd
       -0.02241491 -0.015490016 0.036117945 -0.08344495
000170 ec e5 d0 bc 27 c2 7b 3c 2a af dc bd ef 58 a9 bd
       -0.02550026 0.015366114 -0.107755974 -0.08268916
000180 17 c9 1e 3d 5d c5 a2 3d 50 fe e6 3c e6 56 49 3d
       0.038765993 0.079478 0.028197438 0.04915514
000190 2d 31 9c bd 0a 45 18 3d 5d 27 0f 3b ca 9d fc 3c
       -0.07626567 0.037175216 0.002184353 0.030836958
0001a0 f2 a8 87 bc 9c 06 b8 bc 4c 9f 89 3b d3 80 b1 bd
       -0.016560052 -0.02246409 0.004199898 -0.086671494
0001b0 d5 7d 0f bd 25 d3 c7 bd 96 58 18 be 10 bc 3c 3d
       -0.035032112 -0.097570695 -0.14877543 0.046077788
0001c0 66 6c 9f 3c 10 c7 36 bc db 50 60 3d e3 e3 46 3d
       0.019460868 -0.011155859 0.05476461 0.048557173
0001d0 38 7b 1a bc 80 89 aa bd e2 9d bb bd 83 56 a8 bd
       -0.009428792 -0.08327007 -0.09160973 -0.08219626
0001e0 7b c6 70 3a 53 eb 2c bd 20 c4 9b bc a5 86 cd ba
       0.00091848493 -0.04221661 -0.019014418 -0.0015680386
0001f0 0a 46 dd bd 2a 94 76 3d df 2b 5b bd 4a 54 50 bb
       -0.108043745 0.060199894 -0.053508636 -0.0031788521
000200 bb 92 8d bc 58 7c 9b 3e d9 65 55 3e c8 d7 0b bf
       -0.01728188 0.30368304 0.20839633 -0.5462613
000210 6d 5a 01 bd 2d be 18 bf ae f8 be bd 40 42 d8 3c
       -0.031580377 -0.59665185 -0.09324776 0.026398778
000220 78 c2 d4 3c 83 9f ff be 6d cf 8e 3e e8 7d a8 bd
       0.025971636 -0.49926385 0.27892628 -0.0822714
000230 ad 9e 3f 3e 7a d3 71 3e fb 2a 5d 3d ce f3 9c be
       0.18712874 0.23615828 0.053996067 -0.30654758
000240 d7 25 60 bf 95 f8 d4 be ef ad 18 bd 87 dc 0a bf
       -0.8755774 -0.41595903 -0.03727525 -0.5424275
000250 7f 02 24 3e 05 d2 d5 3c 66 a9 7f bc 57 51 a1 3c
       0.16016577 0.026101122 -0.015604353 0.019692106
000260 bd e8 b2 3e 95 c4 0b be 5a ec 8a be 4b e5 9b be
       0.3494319 -0.13649209 -0.27133447 -0.30448374
000270 dd 42 31 be 27 b4 a3 bd df 0e 30 3f a0 c1 09 bf
       -0.17310663 -0.07993346 0.6877269 -0.53811073
000280 58 03 52 3e e1 e8 b8 be 03 c9 21 bd 60 84 31 3e
       0.20509088 -0.36115173 -0.03949834 0.17335653
000290 3a 55 31 be 00 c7 d1 3d 8d c5 9d be a4 7a 9c be
       -0.17317668 0.10243034 -0.30814782 -0.30562317
0002a0 7f fd e1 3e 26 e4 9f bc 24 17 29 be 2f 8a d0 3d
       0.44138715 -0.01951797 -0.16512734 0.101826064
0002b0 3a 01 e8 3c 36 c4 7d 3e 35 4f 6d bd 7a b7 66 3e
       0.028320897 0.2478188 -0.057936866 0.22530928
0002c0 0a 70 99 be ac d4 f3 3e ab e6 a9 3e b7 5b b8 bd
       -0.29968292 0.47623193 0.33183798 -0.09001868
0002d0 12 59 59 3d 0b 35 01 3f 12 47 29 3c 1e 37 18 3f
       0.05306346 0.5047156 0.010331886 0.594591
0002e0 b3 52 c7 3d 3e 09 14 be 66 7a 79 be 19 79 2b be
       0.097325705 -0.1445665 -0.24363098 -0.16745414
0002f0 ee 7c 00 bf 63 e1 d1 bb b6 88 c0 be 81 9e 08 3d
       -0.5019063 -0.006405042 -0.37604302 0.033354286
000300 7d 7a 98 3c a3 31 02 3d d6 ee 0e be 89 b6 ac be
       0.018613094 0.03178562 -0.13958296 -0.33733013
000310 4b e3 93 bd 0a 00 c9 3e a3 c8 a4 3d 80 e0 13 3f
       -0.07221087 0.39257842 0.08046081 0.57764435
000320 fa 85 1b bf 5a 4a 38 3d f8 91 84 be fd 8b b7 3e
       -0.60751307 0.044992782 -0.25892615 0.3584899
000330 0c 18 df bf 82 7b 43 3c 5c c8 83 bc fb 48 f6 3d
       -1.7429214 0.011931302 -0.01608675 0.12025639
000340 39 1e e5 bc 1d 34 09 bd 14 3f d4 3d 69 64 dd 3e
       -0.027968513 -0.033496965 0.10363594 0.4324067
000350 3d cb 59 3e 3e 7f b3 be 67 9e b8 bd c5 1e d7 3e
       0.21268936 -0.35058016 -0.09014588 0.42015663
000360 f4 45 d4 3e 2b 06 e2 be ea cf 48 3e 22 12 9d be
       0.4145962 -0.4414533 0.19610563 -0.30677897
000370 27 6b 53 3d 7d cd 88 3e 71 65 28 be 22 2a 2a be
       0.05161586 0.26719275 -0.16444947 -0.16617635
000380 b2 0e a7 3e 32 a5 39 bd 6f a4 86 bc ab 15 cf 3d
       0.326284 -0.04532356 -0.01643583 0.10111555
000390 0c e5 55 3e 9f 4c 96 be 27 6c c8 be 10 dc cd 3e
       0.20888156 -0.29355332 -0.39145014 0.40206957
0003a0 19 69 1f be 76 b2 cc 3e de 77 c7 3e 96 44 b1 3c
       -0.15567435 0.39979905 0.3895864 0.02163915
0003b0 b4 18 67 3e a9 ed b7 3e 86 db e3 be 95 1b 87 3d
       0.22568017 0.35923508 -0.4450342 0.06597058
0003c0 c2 ac d0 bd b2 d9 6a 3e e0 73 ae 3e ea e4 a4 3d
       -0.10189201 0.22934607 0.3407278 0.080514744
0003d0 da 8b d4 3e c8 f0 ce be a8 e7 03 bf b4 0a 0b bd
       0.41512948 -0.40418077 -0.51525354 -0.033945754
0003e0 55 d5 fc 3d e4 08 05 3e a5 33 2e 3d d2 2e bf 3c
       0.12345377 0.12991673 0.04252972 0.023337755
0003f0 24 93 1a be 66 e6 ff 3e af c9 4b 3e a9 09 8b 3e
       -0.15095192 0.49980468 0.19901155 0.27155808

model.4.bias f4 [64]
000000 f1 4c fb bd df ab 1d bd 7c e2 07 3d c5 49 0a 3e
       -0.12270535 -0.038493987 0.033174977 0.13504703
000010 b6 5f 85 be 9f d8 c7 bc 55 22 81 be b6 5c 8c bd
       -0.26049584 -0.024395285 -0.25221506 -0.06853621
000020 7d f5 87 3d 68 df 91 3f 22 c8 d1 bd aa 1d 13 be
       0.0663862 1.1396303 -0.102432504 -0.14366785
000030 a8 e9 af 3f b2 fa 9a bd e3 bf 12 bc 67 7d 5e bc
       1.3743181 -0.075673476 -0.008956882 -0.013579703
000040 8e fb a5 3f 07 c5 61 3f 46 16 9a bc 0d 83 a2 3e
       1.2967393 0.88191265 -0.018809449 0.3174061
000050 84 ee ce bd 64 52 6b 3d 42 7d 8a 3d 5e 9e 47 3e
       -0.10104087 0.05745162 0.06762172 0.19494006
000060 1f 96 bd bc e0 31 91 3d 3c 80 1a be be 86 29 bd
       -0.023142872 0.07089591 -0.1508798 -0.041388266
000070 30 15 70 be 10 92 88 bc 6e 10 d2 bd c6 dd f9 bd
       -0.23445582 -0.01667121 -0.1025704 -0.12200503
000080 08 ce f6 bd 7f 46 ab 3e 10 2e 60 3d 20 35 31 3d
       -0.12051016 0.33452222 0.05473143 0.043263555
000090 64 6e bb 3e ae 7c 30 3e 34 99 ba 3f 39 a1 3f be
       0.3660766 0.17235062 1.4578004 -0.18713845
0000a0 67 79 e5 bd 13 d5 ab 3f 40 31 13 be d8 cc 40 be
       -0.11204796 1.34244 -0.14374256 -0.18828142
0000b0 59 31 2f 3f 24 49 28 3c a1 a6 07 3d fb f7 62 3e
       0.68434674 0.010271344 0.033117894 0.2216491
0000c0 d9 69 6d be 88 7d 91 3c ab c7 e1 bd d3 24 e7 3e
       -0.23184909 0.017760053 -0.11024412 0.45145282
0000d0 78 3c 80 3d cc d6 05 be 8e b4 28 3f 6c 44 7e 3c
       0.062615335 -0.1307022 0.65900505 0.015519243
0000e0 68 02 b0 3e 04 b6 97 3e 11 55 03 3c fc 92 d7 bd
       0.34376836 0.29631054 0.008015887 -0.10526082
0000f0 c7 46 92 3f 04 3a a0 3d 6d 6b 9c bd cc cd 1d 3d
       1.142785 0.078235656 -0.07637677 0.03852634

model.6.weight f4 [9, 64]
000000 d8 ee de bc fd c9 73 3d 65 4e af be 98 8d 84 3e
       -0.027213499 0.059518803 -0.34239498 0.25889277
000010 ca cd a1 bd 1f 67 40 3d 6b 4e 52 be 14 71 bf 3d
       -0.07900579 0.046973344 -0.20537727 0.0934774
000020 9c e7 4d be a9 1e 96 3e ba d9 4d 3a 87 5c 1b 3e
       -0.20107883 0.29320267 0.0007852573 0.15172015
000030 a6 86 09 3f 95 13 b4 3e 29 d2 8a 3c b2 65 6a 3c
       0.5372108 0.3517119 0.016945915 0.014306473
000040 91 34 78 3e fb 0f b4 bb d1 18 7f bd 0b b9 14 be
       0.24238802 -0.005495069 -0.062279526 -0.14523713
000050 2c 58 0a bd f4 b6 8b 3e e1 33 c1 3c d2 b5 7c be
       -0.033775494 0.2728802 0.023584308 -0.24678734
000060 35 32 19 3e 8a af 84 3e 97 e3 b2 3e 33 f1 8b bc
       0.14960559 0.25915176 0.34939262 -0.017082786
000070 69 21 ab 3d 1c 91 93 3d 2c 03 c0 3d 43 8c a2 3d
       0.08355982 0.07205412 0.09375605 0.07936909
000080 b2 bd d5 3c 2d 88 05 bf 1e 82 df be 91 5e d3 3e
       0.02609143 -0.5216091 -0.4365396 0.41283086
000090 9d 5e dd be 57 09 d4 be e3 ff dc 3e 7b ee 97 bd
       -0.43236247 -0.41413376 0.43163976 -0.074185334
0000a0 9e b5 e4 3c 56 7d 76 3e 94 26 59 3d a7 2a 81 bd
       0.027918633 0.2407125 0.053015307 -0.063069634
0000b0 54 12 29 3e f3 e2 9f be 74 65 a8 be 2b e3 12 3d
       0.16510898 -0.31227836 -0.32889903 0.035861176
0000c0 5e 01 50 be e6 28 10 3e 40 06 a4 bd df 57 5e 3e
       -0.20313022 0.14078102 -0.080090046 0.21713208
0000d0 af 24 1f bf 2f 66 fb 3e f9 03 23 bf 52 57 82 be
       -0.6216535 0.49101397 -0.63677937 -0.25457245
0000e0 08 c9 5c 3e e0 54 1f bf 17 94 3f 3c 6b 0e 7b bc
       0.21561062 -0.62238884 0.011693022 -0.015323262
0000f0 52 ef dd 3e 75 79 88 bf 07 8f ee bd f7 a3 52 bd
       0.4334665 -1.0662066 -0.11648374 -0.0514259
000100 34 46 88 3c 85 34 47 be 72 3d 62 3e b1 31 2b be
       0.016635038 -0.19453628 0.22093752 -0.16718175
000110 ed 30 83 bc f2 4a 80 bc 96 e1 cf 3e 4a 7d e9 3b
       -0.01601454 -0.015660737 0.40601796 0.0071255313
000120 ba 0e 19 3d 04 02 8e bd 24 2f 08 3d cb 2a 5c be
       0.03736756 -0.06933978 0.03324808 -0.21500699
000130 91 bf ad 3e 7a db e4 3e 10 32 a6 3e ea cd 90 bc
       0.33935216 0.44698697 0.3246007 -0.017676312
000140 aa f7 0a 3f a6 d0 c5 be 60 33 df 3d 45 2b 49 bd
       0.54284155 -0.3863575 0.10898471 -0.04911353
000150 0c 93 54 bd 35 7b 2d 3e 86 d2 22 3e 40 c5 d6 3e
       -0.051898047 0.16941531 0.15900621 0.41947365
000160 92 f1 66 3e 58 71 83 be dc 31 50 3d e0 eb 88 3d
       0.2255309 -0.25672412 0.0508288 0.066856146
000170 3e 44 3a 3d af ce be 3d 4b 59 3a 3d e1 ab 86 3d
       0.045475237 0.093167655 0.045495313 0.06575752
000180 71 cc af 3c 78 9d 52 3e 89 c1 fa 3d 8d d7 cc be
       0.02145979 0.20567882 0.12243945 -0.40008202
000190 80 0c de be 21 c0 a5 be 4d 05 ad 3e 55 1f ce 3d
       -0.43368912 -0.32373145 0.33793107 0.1006457
0001a0 b9 86 93 be e1 71 c3 3e e5 2c 3a 3d ef a5 15 be
       -0.28813723 0.3817282 0.04545297 -0.1461408
0001b0 6a 50 04 3f 76 e3 31 be 98 24 05 3e 7b 44 6d bf
       0.516852 -0.17371926 0.1300224 -0.9268262
0001c0 d2 55 bc be 2a f7 05 3f 6e 2a 35 3c f5 95 e0 3c
       -0.36784226 0.5233027 0.011057479 0.027415255
0001d0 22 ce 5e 3c 75 6a 89 bc bb 47 6f bd 06 8e d1 bd
       0.013598951 -0.016774395 -0.058418017 -0.10232167
0001e0 24 99 87 3c f3 92 5a 3e 37 ea 0b 3d 74 71 98 bd
       0.016552515 0.21345119 0.03415891 -0.074435145
0001f0 cd 5a 8a bd ae dc 7f 3d a3 5e f8 3d 10 52 31 bd
       -0.067556 0.062466316 0.121274255 -0.04329115
000200 36 43 e1 3d 36 0c 9a 3e ea a2 2b be 9a e6 c9 3e
       0.109991476 0.3008744 -0.16761366 0.39433748
000210 4f 83 c3 3d 4c c4 69 3d 4a 2b 92 be 7f 37 34 3d
       0.095465295 0.05707197 -0.28548652 0.043998238
000220 9e d1 fb be 62 69 c3 3e 50 75 17 bd d2 63 61 be
       -0.49183363 0.38166338 -0.036977112 -0.22010735
000230 72 65 df 3e 66 68 a7 3e 83 fb 71 3e e4 9f c7 3c
       0.43632084 0.32696837 0.236311 0.024368234
000240 57 51 2f 3e 0c 3e 7a 3e 75 b4 c5 3e b1 a2 c0 bd
       0.17120872 0.24437732 0.3861424 -0.09406031
000250 52 6f 93 bd 10 9f 31 3d a9 1f 50 bd 3f 88 55 be
       -0.07198967 0.043364584 -0.050811443 -0.20852755
000260 c1 51 07 be e0 c3 62 bd 8e b5 05 be ed ab c1 bd
       -0.1321478 -0.055362582 -0.13057539 -0.0945662
000270 29 78 ba be 26 66 65 3d 5b c1 b4 3e e1 12 d3 3d
       -0.364198 0.05600562 0.3530377 0.10306335
000280 4b 4c b4 3c 78 25 0d bf 5d 6e bb 3e cb 82 97 3e
       0.022009036 -0.551353 0.36607638 0.29591975
000290 c8 8c f5 be 50 19 b6 be 09 3c 85 3e 57 6f 86 be
       -0.4795897 -0.35566187 0.26022366 -0.2625682
0002a0 7b b8 70 be f3 24 d4 3e 04 f4 ae 3e ab 31 98 bd
       -0.23507874 0.4143444 0.34170544 -0.074313484
0002b0 9a 04 c0 3c d7 c6 84 be 28 eb 38 3e a4 d1 b3 3e
       0.023439694 -0.25932953 0.18058455 0.3512088
0002c0 ad 30 ab be 2e 66 67 bd 07 12 e6 3d de 10 ba 3d
       -0.33435574 -0.05649393 0.11233907 0.090852484
0002d0 7b 04 85 bf 67 66 99 3e 63 4a 62 3e 38 42 71 bd
       -1.0391992 0.2996094 0.22098689 -0.05890104
0002e0 3f 3d 67 3e cb e3 0e 3e 8e 2d 86 bd 32 6d 20 3e
       0.22581957 0.13954084 -0.065516576 0.15666655
0002f0 75 59 22 3e d3 52 cf be a1 dc e1 bc b3 43 0d be
       0.15854438 -0.40492877 -0.027571024 -0.13795356
000300 b2 fe 90 3d 62 51 96 be 92 10 51 bd b1 aa 69 be
       0.07079829 -0.29358965 -0.051041193 -0.2281902
000310 c2 ca 04 be d8 4d a2 3d 92 e5 e5 be b5 87 87 3d
       -0.12967971 0.07925004 -0.4490171 0.06617681
000320 06 92 34 3e 0d 93 61 bd 26 44 e9 3d 97 d3 d8 be
       0.17633829 -0.05507188 0.113899514 -0.4234893
000330 66 b3 78 3e 02 8a 50 3e 98 0c 4d 3e 50 81 31 3d
       0.24287185 0.20365146 0.20024335 0.043336213
000340 d8 27 05 3f 49 db c6 be af 78 f9 bd 65 f3 8d 3e
       0.5201392 -0.38839176 -0.12181222 0.27724758
000350 11 4b f8 3b 05 40 f3 bc dc 81 86 3c e9 8f ca 3d
       0.007577308 -0.029693613 0.016419344 0.0989073
000360 0b 64 00 3e f3 86 70 be cf 80 81 bd 72 eb f6 3b
       0.12538163 -0.23488979 -0.063233964 0.0075353915
000370 2b 69 fa 3d 3e 49 b3 3c 07 6e 78 3e 53 86 9a 3d
       0.122270904 0.02188551 0.24260722 0.075451516
000380 fd 49 35 3d 0e 09 5c 3e 75 1d 08 bd 95 17 ff be
       0.044260014 0.21487829 -0.033231217 -0.4982268
000390 78 82 ff be ae e6 bb 3d 41 f1 94 3e 2a 26 1c bf
       -0.49904227 0.09174858 0.29090312 -0.60995734
0003a0 56 32 7c 3d 92 b7 f2 3e 15 57 b5 3e 42 f5 25 3d
       0.06157144 0.47405678 0.35418 0.0405171
0003b0 ab f8 ef 3e 86 07 45 3e 65 bf 22 3e 54 4d 2c bf
       0.46869406 0.19241151 0.15893324 -0.67305493
0003c0 22 cf 37 bd ee be f7 3d 82 ca b1 bd 4e fa 61 3e
       -0.04487527 0.12096964 -0.086812034 0.2206814
0003d0 50 57 52 3e 14 97 b2 ba 0b aa 3d be 42 dc d2 3c
       0.2054112 -0.0013625347 -0.18521897 0.025739793
0003e0 30 15 91 3e 83 aa cb 3d d2 3c 9d 3d 69 ea c2 3d
       0.28336477 0.09944632 0.07677616 0.095173664
0003f0 07 16 53 3d 40 7d fb bd f5 ab 8d bd f7 3b 1a be
       0.05153468 -0.12279749 -0.06917564 -0.15061937

model.6.bias f4 [9]
000000 f6 9f 74 3f 28 31 41 3f f1 0b 2c 3f 38 3c 27 3f
       0.9555658 0.7546563 0.6720572 0.6532626
000010 a8 2a 81 3f 48 84 6a 3f 59 e7 59 3f 7f 85 62 3f
       1.0091143 0.91608095 0.85118634 0.8848495
000020 4e 55 56 3f
       0.83723915
