models/dqn/model.pth (torch, 110888 bytes, 8 tensors)

model.0.weight f4 [128, 12]
0	0xc0f8fb4e	-7.780677
1	0xc19fdae6	-19.981884
2	0x41e2ad60	28.334656
3	0xc210a760	-36.163452
4	0x408cacb5	4.3960824
5	0x41935887	18.418226
6	0xc1ac7f59	-21.562181
7	0xc17499da	-15.287561
8	0xbe843b11	-0.25826314
9	0x3f072c97	0.52802414
10	0x4160e4eb	14.055888
11	0x408cf1de	4.404525
12	0x40ced8b2	6.463952
13	0x41f8a3a3	31.0799
14	0xc180e124	-16.109932
15	0x413d1d54	11.81966
16	0xbf6c1595	-0.9222043
17	0xc128277e	-10.509642
18	0xc0b40293	-5.625314
19	0xc1021b1c	-8.1316185
20	0x411985eb	9.595195
21	0x41a4afe2	20.58588
22	0x41748fe5	15.2851305
23	0xbf9f0c89	-1.24257
24	0x41061906	8.381109
25	0x4200504f	32.078426
26	0xc15f28e8	-13.947487
27	0x412f9eb2	10.976244
28	0xbf8d32c7	-1.1031121
29	0xc12e1fc7	-10.882758
30	0xc0c08ef8	-6.0174522
31	0xc10da695	-8.853169
32	0x410ed643	8.92731
33	0x41a7dd2e	20.982998
34	0x4178a444	15.540104
35	0xbfbbe333	-1.4678711
36	0xc223ebdc	-40.98033
37	0xc115b40c	-9.356457
38	0x4048fad9	3.1403105
39	0x42867b2b	67.24056
40	0x42d67a0d	107.23838
41	0xc2883464	-68.102325
42	0x4009cb25	2.153024
43	0xc1756fcc	-15.339794
44	0xc2aa8526	-85.260056
45	0xc1b63e1b	-22.780325
46	0x415d5b52	13.834795
47	0x42d65fdc	107.187225
48	0xc2262f7a	-41.546364
49	0xc1178ae6	-9.471411
50	0x406dff7f	3.7187192
51	0x4285d65a	66.918655
52	0x42d6cbd2	107.39809
53	0xc2883357	-68.10027
54	0x3fe45890	1.7839527
55	0xc176c225	-15.422399
56	0xc2aaa586	-85.32329
57	0xc1b4ac69	-22.584185
58	0x4161dcc8	14.116402
59	0x42d6d6b9	107.41938
60	0xc207f46a	-33.988686
61	0xc0ec1cc1	-7.37851
62	0x4058bf62	3.386681
63	0x4285fdf0	66.99597
64	0x42ce082e	103.015976
65	0xc286fc2f	-67.492546
66	0x3fe4f24e	1.7886446
67	0xc18f3ded	-17.905237
68	0xc2a879d7	-84.23797
69	0xc1a66b3a	-20.802357
70	0x417c12b2	15.754564
71	0x42ce1fd1	103.06214
72	0xc21674d3	-37.614086
73	0xc115a7b4	-9.353443
74	0x40658d9a	3.5867677
75	0x4285ddd3	66.93325
76	0x42d63288	107.098694
77	0xc2871b41	-67.55323
78	0x400690c1	2.102585
79	0xc17a565d	-15.646085
80	0xc2aa6f68	-85.21759
81	0xc1b8decf	-23.108793
82	0x41584a90	13.518204
83	0x42d57d7b	106.74508
84	0xc2213d19	-40.309666
85	0xc117c7c5	-9.486272
86	0x4052b702	3.29242
87	0x4287bbe8	67.867004
88	0x42d57e38	106.74652
89	0xc2870540	-67.510254
90	0x401e35df	2.472038
91	0xc182c009	-16.343767
92	0xc2aad9d8	-85.425476
93	0xc1b5320c	-22.649437
94	0x41489508	12.536385
95	0x42d575cf	106.730095
96	0xc224a623	-41.162243
97	0xc117a497	-9.477683
98	0x40640b7c	3.563201
99	0x42867be8	67.242004
100	0x42d68867	107.26641
101	0xc2883722	-68.10768
102	0x3fd41fe2	1.657223
103	0xc1794b41	-15.580873
104	0xc2aa4818	-85.14081
105	0xc1b15dfc	-22.17089
106	0x416378d2	14.216997
107	0x42d64736	107.139084
108	0xc227bb88	-41.933136
109	0xc1193c57	-9.577231
110	0x406f926f	3.7433126
111	0x42856486	66.696335
112	0x42d6c36b	107.381676
113	0xc286fd73	-67.49502
114	0x4004a556	2.0725913
115	0xc1772737	-15.447074
116	0xc2a9d8c1	-84.92335
117	0xc1b432c8	-22.524796
118	0x4162b9c0	14.170349
119	0x42d6abf8	107.33588
120	0x40a00a01	5.001221
121	0xc189b90a	-17.215351
122	0x41b252bf	22.290403
123	0xc1ff5671	-31.917208
124	0x409e5e6a	4.949025
125	0x41b78150	22.93814
126	0xc19de668	-19.737503
127	0xc08c19ad	-4.3781343
128	0xbf9f093a	-1.2424691
129	0x41a8607b	21.04711
130	0x4219f020	38.484497
131	0x40a9cfe0	5.3066254
132	0xc2258011	-41.375065
133	0xc11882d4	-9.53194
134	0x406bc394	3.6838121
135	0x4286541b	67.16427
136	0x42d6a951	107.330696
137	0xc286ffd0	-67.49963
138	0x3fdf48ca	1.7444088
139	0xc1775417	-15.45803
140	0xc2aa4455	-85.13346
141	0xc1ad13ce	-21.63467
142	0x4165bbe8	14.358376
143	0x42d67754	107.23306
144	0xc2265a3c	-41.58812
145	0xc1200f01	-10.003663
146	0x404c26af	3.189861
147	0x428591de	66.7849
148	0x42d6f91e	107.48656
149	0xc28858cd	-68.17344
150	0x3fef486b	1.8693975
151	0xc1777bee	-15.467756
152	0xc2a965f9	-84.699165
153	0xc1b18f6c	-22.19503
154	0x415dd593	13.864642
155	0x42d6d94a	107.42439
156	0xc0fd08ae	-7.9073095
157	0xc1806376	-16.048565
158	0x41dbde19	27.483446
159	0xc20f064d	-35.756153
160	0x40914b57	4.5404468
161	0x41b9966a	23.198444
162	0xc1935289	-18.4153
163	0xc03f7c90	-2.9919777
164	0xbff46e9c	-1.9096255
165	0x41a8471a	21.034718
166	0x421c9976	39.149864
167	0x408ceb5f	4.403732
168	0x412d0ddf	10.8158865
169	0x42058730	33.38202
170	0xc08481cf	-4.140846
171	0x4139ecc9	11.620309
172	0xc08adcea	-4.339467
173	0xc11b213f	-9.695617
174	0xc0927a26	-4.5774107
175	0xc1808d29	-16.068926
176	0x40abfa71	5.3743215
177	0x41b24f21	22.288637
178	0x418ef3ed	17.869104
179	0xc084211a	-4.1290407
180	0xc2227335	-40.612507
181	0xc1199477	-9.598746
182	0x404ecc32	3.231213
183	0x428681da	67.25362
184	0x42d6010f	107.00207
185	0xc28772c4	-67.72415
186	0x3fd83621	1.6891519
187	0xc16e7944	-14.904606
188	0xc2aa0729	-85.013985
189	0xc1aa02ec	-21.251427
190	0x416af906	14.685797
191	0x42d5dd74	106.932526
192	0xc2185875	-38.086384
193	0xc11bf3fa	-9.747065
194	0x40747877	3.8198526
195	0x4286636f	67.19421
196	0x42d59ff4	106.81241
197	0xc28866cc	-68.200775
198	0x3fefca28	1.8733568
199	0xc181634e	-16.173489
200	0xc2a9f512	-84.97865
201	0xc1b6dbdb	-22.857351
202	0x41548ff4	13.285145
203	0x42d5b603	106.85549
204	0xc117ebe9	-9.495095
205	0xc173e581	-15.243531
206	0x41f7564c	30.917137
207	0xc216c135	-37.68868
208	0x407d82bb	3.9611042
209	0x41b12748	22.14418
210	0xc184fb50	-16.622711
211	0xc03cda8f	-2.9508398
212	0xc04c574e	-3.1928287
213	0x41874727	16.909742
214	0x42137471	36.863712
215	0x40709409	3.7590353
216	0x40508d8f	3.25864
217	0x4177a681	15.47815
218	0x418317dd	16.386652
219	0xc1c1c78d	-24.222437
220	0x3fb71b06	1.4305122
221	0x41bcda06	23.606457
222	0xc1a03b6c	-20.029015
223	0xc1867777	-16.808332
224	0xbe67eca0	-0.22648859
225	0x41b3257f	22.393309
226	0x42249574	41.14595
227	0x3fac3335	1.3453127
228	0x410c109f	8.754058
229	0x40eb95f0	7.362053
230	0x418cb2ba	17.587269
231	0xc1da65b9	-27.29967
232	0x40453f17	3.0819757
233	0x41b560f7	22.672346
234	0xc1a7be04	-20.967781
235	0xc17a5ed3	-15.64815
236	0x40235b96	2.552465
237	0x41a7919a	20.946095
238	0x42268264	41.627335
239	0x40486be1	3.1315844
240	0xc043e52d	-3.0608628
241	0xc17c2ae3	-15.76047
242	0x41c2211e	24.26617
243	0xc204e8f1	-33.22748
244	0x40a605e8	5.188221
245	0x41b87dbd	23.061396
246	0xc1961a1c	-18.762749
247	0xc0200c98	-2.5007687
248	0xbfbacc25	-1.459355
249	0x41b16154	22.172523
250	0x421f144c	39.76982
251	0x409c8417	4.8911242
252	0xc2192d87	-38.29446
253	0xc11af951	-9.685868
254	0x4066799f	3.6011732
255	0x428657fa	67.17183

model.0.bias f4 [128]
0	0xc1111726	-9.068151
1	0xc17ac9c7	-15.674262
2	0xc178c634	-15.548389
3	0x430385f0	131.5232
4	0x4303694e	131.41135
5	0x43034fca	131.31168
6	0x43034ff8	131.31238
7	0x42fe98bb	127.2983
8	0x430343da	131.26505
9	0x4302f2e4	130.94879
10	0xc1381b59	-11.506677
11	0x4302df27	130.87169
12	0x4303ab1c	131.6684
13	0xc12dbbae	-10.85832
14	0xc15e1253	-13.879474
15	0x43034dcd	131.30391
16	0x4302ac2c	130.67255
17	0xc12eada4	-10.917393
18	0xc0a9f1a6	-5.310748
19	0xc0c41211	-6.1272054
20	0xc138ba7a	-11.5455265
21	0x4303b167	131.69298
22	0xc09ad400	-4.838379
23	0xc12f0f5c	-10.94125
24	0xc08b0e3c	-4.3454876
25	0xc0d4cb41	-6.6498113
26	0xc1271022	-10.441439
27	0x4302c4aa	130.76822
28	0xc1295015	-10.582051
29	0xc1768bc6	-15.409124
30	0x42fd7d5b	126.744835
31	0xc1789de1	-15.538545
32	0xc12f255b	-10.94662
33	0xc1301a1e	-11.006376
34	0xc1795018	-15.582054
35	0xc0a22649	-5.0671735
36	0xc129d923	-10.615512
37	0x4303540a	131.32828
38	0x42ff19d8	127.550476
39	0xc1158c8d	-9.346814
40	0x43036c6c	131.42352
41	0xc0a859ae	-5.260947
42	0xc0a3883f	-5.1103816
43	0x430376d4	131.46417
44	0xc08207c3	-4.0634475
45	0xc13923e9	-11.571267
46	0x4302fee8	130.99573
47	0x4303ad25	131.67635
48	0x43039fcb	131.62419
49	0x4303797c	131.47455
50	0x4303577d	131.34175
51	0xc0d3b621	-6.6159825
52	0xc1770746	-15.439276
53	0x43037cde	131.48776
54	0xc16486bd	-14.282895
55	0xc11a62db	-9.649135
56	0xc0a6dcd1	-5.214455
57	0x43033df5	131.24202
58	0xc1306f54	-11.02718
59	0xc12f1815	-10.943379
60	0xc12d54bf	-10.83319
61	0xc09f3f33	-4.9764647
62	0xc12ca938	-10.791313
63	0xc129d2b1	-10.613938
64	0x43036217	131.38316
65	0xc0a1d6ee	-5.0574865
66	0x4303911c	131.56683
67	0xc0a3e014	-5.1211033
68	0x43023b1f	130.23094
69	0xc0a5ef54	-5.185465
70	0x4303b230	131.69604
71	0xc12bc217	-10.734885
72	0x4303a0ae	131.62766
73	0x43037a7d	131.47847
74	0xc12c0230	-10.750534
75	0xc09f61b2	-4.9806757
76	0x42fbc5c3	125.88625
77	0xc1290ed6	-10.566122
78	0xc124fbcd	-10.311475
79	0x43031cba	131.11221
80	0xc09f5f17	-4.9803576
81	0xc0b2ce0a	-5.5876513
82	0x4302e5e1	130.89796
83	0xc12f2006	-10.945318
84	0x43026777	130.40416
85	0x430361d8	131.3822
86	0xc11c52ef	-9.770247
87	0x4300dca3	128.86186
88	0x430358d0	131.34692
89	0x430348c3	131.28423
90	0x4303469f	131.27586
91	0x43035b60	131.35693
92	0xc0aa7454	-5.3267
93	0x4303ad4e	131.67697
94	0x4303ebe0	131.92139
95	0xc15fd30d	-13.989026
96	0xc09bc448	-4.86771
97	0x430368ae	131.4089
98	0x4302ce90	130.80688
99	0xc09a4c8e	-4.821845
100	0xc17347d8	-15.20504
101	0x430388f7	131.53502
102	0xc1583fa4	-13.515537
103	0xc0a53bdf	-5.1635585
104	0xc158dfd6	-13.554647
105	0xc134481d	-11.267606
106	0xc12392e9	-10.223367
107	0xc09d369e	-4.912917
108	0x430386ec	131.52704
109	0xc0a2a1f4	-5.0822697
110	0x430381cf	131.50706
111	0x43031c88	131.11145
112	0x4302ce48	130.80579
113	0x4300b684	128.71295
114	0xc0aa89ad	-5.329306
115	0x4302142a	130.07877
116	0xc177d65d	-15.489835
117	0x430332bb	131.19817
118	0xc0a47059	-5.1387143
119	0x4302dde0	130.8667
120	0xc177bb57	-15.483237
121	0x43001e4f	128.1184
122	0x43039cbb	131.61223
123	0xc14022a5	-12.008458
124	0xc140b494	-12.044086
125	0xc14e25f3	-12.884265
126	0x43037cd3	131.4876
127	0xc131ed90	-11.120499

model.2.weight f4 [128, 128]
0	0xc2169272	-37.643013
1	0xc1f1b2df	-30.21234
2	0xc1fde721	-31.737856
3	0x43040454	132.0169
4	0x4303d6cf	131.8391
5	0x4303ff15	131.99641
6	0x4303c80b	131.78142
7	0x4302ad19	130.67616
8	0x4303b7a6	131.71738
9	0x4303f7cf	131.968
10	0xc22e9945	-43.649677
11	0x4303763a	131.46182
12	0x430409ae	132.03781
13	0xc2289721	-42.147587
14	0xc21356c7	-36.834743
15	0x430376dc	131.4643
16	0x43037e59	131.49355
17	0xc220671b	-40.10069
18	0xc24ee46d	-51.723072
19	0xc24a4927	-50.571438
20	0xc22de93b	-43.477764
21	0x4303a248	131.63391
22	0xc23e76ac	-47.61589
23	0xc219f47d	-38.488758
24	0xc2501b3c	-52.026596
25	0xc24b6e91	-50.857975
26	0xc2184af2	-38.07319
27	0x43044396	132.264
28	0xc21b1543	-38.770763
29	0xc1f1c98f	-30.223417
30	0x430208d2	130.03445
31	0xc1f24415	-30.283243
32	0xc21ff515	-39.989338
33	0xc2344d3f	-45.075436
34	0xc1f225be	-30.268429
35	0xc23f8b40	-47.885986
36	0xc2177d32	-37.87226
37	0x4303a2aa	131.6354
38	0x430232a4	130.19781
39	0xc20cfb0f	-35.245174
40	0x43036fca	131.43668
41	0xc2600600	-56.00586
42	0xc25c1992	-55.02497
43	0x43038951	131.53639
44	0xc254d695	-53.209553
45	0xc22f511f	-43.82922
46	0x4303d0c5	131.8155
47	0x4304006f	132.0017
48	0x4303e858	131.9076
49	0x43036e6d	131.43135
50	0x4303fd0a	131.98843
51	0xc22df520	-43.48938
52	0xc1f34e2b	-30.413168
53	0x430428d4	132.15948
54	0xc20035f2	-32.05268
55	0xc2338a62	-44.88514
56	0xc25d13b3	-55.269238
57	0x430408d1	132.03444
58	0xc21af48e	-38.738823
59	0xc2232a7c	-40.79149
60	0xc2230424	-40.754044
61	0xc2689fb4	-58.15596
62	0xc21f5729	-39.835117
63	0xc239076d	-46.25725
64	0x4303c33f	131.76268
65	0xc257a186	-53.907738
66	0x43040e47	132.05577
67	0xc2444f30	-49.07733
68	0x43032bad	131.17061
69	0xc2632b87	-56.792507
70	0x43040a20	132.03955
71	0xc21c506f	-39.07855
72	0x43040ec4	132.05768
73	0x4303ff3d	131.99702
74	0xc21fb497	-39.926357
75	0xc26a0107	-58.501003
76	0x430160b8	129.3778
77	0xc23ba0d8	-46.907074
78	0xc21a6cb1	-38.606144
79	0x43044f10	132.30884
80	0xc25ad39e	-54.706657
81	0xc2507f3f	-52.124264
82	0x4303652d	131.39522
83	0xc21a8c4f	-38.63702
84	0x430321b0	131.13159
85	0x43036a9c	131.41644
86	0xc237e5db	-45.97447
87	0x430325bd	131.14742
88	0x4303937f	131.57616
89	0x4303a057	131.62633
90	0x430220a9	130.12758
91	0x4303c53a	131.77042
92	0xc24e1a48	-51.525665
93	0x4303c7aa	131.77994
94	0x4303eb10	131.91821
95	0xc209237c	-34.284653
96	0xc2539163	-52.89198
97	0x4303d7f5	131.84358
98	0x4302fe1b	130.9926
99	0xc24f558a	-51.833534
100	0xc1ede027	-29.73445
101	0x4303f9ab	131.97527
102	0xc207b673	-33.928173
103	0xc2600878	-56.00827
104	0xc1f80f8b	-31.00759
105	0xc2318371	-44.37836
106	0xc239d859	-46.461277
107	0xc2689137	-58.14181
108	0x43039554	131.58331
109	0xc2571b99	-53.77695
110	0x43042b20	132.16846
111	0x43042721	132.15285
112	0x43035b82	131.35745
113	0x43025f05	130.37117
114	0xc2526c62	-52.605843
115	0x42ffde35	127.934
116	0xc1f9dd67	-31.233107
117	0x4303932c	131.57489
118	0xc25e4736	-55.569542
119	0x4303ac93	131.67412
120	0xc1f6e445	-30.86146
121	0x4302a228	130.63342
122	0x43040126	132.00449
123	0xc23aff0d	-46.749073
124	0xc22b07f7	-42.75778
125	0xc231fc13	-44.496166
126	0x4303beda	131.74551
127	0xc224ecb0	-41.23114
128	0x41dc73f2	27.556614
129	0x420940a4	34.313126
130	0x420d9dc9	35.404087
131	0xbda8eb0b	-0.08247956
132	0x3c1900c7	0.009338564
133	0xbf67e7a6	-0.9058784
134	0xbf185bbf	-0.59514993
135	0xc0124182	-2.2852483
136	0x3e8ec76b	0.2788652
137	0xbed7a5c2	-0.4211865
138	0x42390509	46.254917
139	0x3f16eabe	0.5895194
140	0x3ee258c7	0.44208357
141	0x422fec7a	43.980934
142	0x42185745	38.085224
143	0x3f79d591	0.975915
144	0x3cce1daf	0.025160639
145	0x422aed48	42.73172
146	0x426a3b5a	58.55796
147	0x425c6645	55.099873
148	0x423a58ee	46.586845
149	0xbf546386	-0.8296436
150	0x42592189	54.28275
151	0x4222b0cd	40.672657
152	0x426203fd	56.503895
153	0x425a4093	54.56306
154	0x421ffee4	39.998917
155	0xbf3bdb63	-0.7338163
156	0x4227d8be	41.961662
157	0x420761c7	33.845486
158	0xbf069389	-0.5256887
159	0x420aa1e5	34.6581
160	0x42255454	41.33235
161	0x423dca15	47.447346
162	0x420c65b3	35.099316
163	0x4259ccc3	54.449963
164	0x42219b86	40.40188
165	0xbf58690c	-0.8453529
166	0xbf66d11f	-0.90162843
167	0x4229abb3	42.417675
168	0xbe17970e	-0.14803717
169	0x42771b38	61.77658
170	0x42780ec2	62.014412
171	0x3f37c949	0.7179151
172	0x426dc919	59.446384
173	0x423c28cb	47.039837
174	0x3eb40f0d	0.35167733
175	0xbd9a87aa	-0.07545407
176	0x3e875e7a	0.26439267
177	0x3ecb7617	0.39738533
178	0xbe6727b5	-0.22573741
179	0x423e942e	47.644707
180	0x420e70f0	35.61029
181	0xbcdae8b7	-0.026722295
182	0x420f46d0	35.819153
183	0x423dcb30	47.448425
184	0x426f39ff	59.806637
185	0xbd835be3	-0.064140104
186	0x42251adf	41.27624
187	0x42318a72	44.3852
188	0x422d5c47	43.340115
189	0x427fe3ff	63.972652
190	0x4224b544	41.177017
191	0x423f60d7	47.84457
192	0x3ed1af29	0.4095395
193	0x4269c66a	58.443764
194	0xbe35bbc3	-0.17747407
195	0x425e0ef8	55.514618
196	0xbde5696a	-0.11201747
197	0x4277a800	61.914062
198	0x3eb0c34e	0.34524006
199	0x42269167	41.641994
200	0x3eaffbaa	0.34371692
201	0xbe7e1ce7	-0.24815713
202	0x42284548	42.067657
203	0x427d5968	63.33731
204	0xbf19ca52	-0.6007434
205	0x42482ab8	50.041718
206	0x4224082f	41.00799
207	0xbe7720fe	-0.2413368
208	0x426f22a8	59.783844
209	0x426416ec	57.022385
210	0x3e74e3ce	0.23915026
211	0x42216415	40.347736
212	0xbeedffc7	-0.46484205
213	0x3f381822	0.71911824
214	0x4247c537	49.942593
215	0xbf4b0aba	-0.7931324
216	0x3ee73e43	0.4516469
217	0x3edd5bb7	0.43234035
218	0x40162135	2.3457768
219	0x3e121dcc	0.14269179
220	0x425f5cdc	55.840683
221	0xbe01b654	-0.12667209
222	0x3e806875	0.25079694
223	0x421844b9	38.067112
224	0x426ac12e	58.688652
225	0x3f1a6499	0.6030975
226	0xbf6d187e	-0.926155
227	0x42687838	58.1174
228	0x420a1c2e	34.52752
229	0xbd2fa2cf	-0.042879876
230	0x420f8407	35.878933
231	0x4273e65a	60.974953
232	0x420a0de4	34.513565
233	0x423a6693	46.60017
234	0x424730d4	49.797684
235	0x427d1ef7	63.28024
236	0x3ee4e330	0.4470458
237	0x426cb532	59.17695
238	0xbe88c99d	-0.2671632
239	0xc02cffe0	-2.7031174
240	0xbe50e64f	-0.20400356
241	0xc0187ad1	-2.382496
242	0x426de514	59.47371
243	0x407aed74	3.920743
244	0x420c0f1f	35.014767
245	0x3db482f7	0.08814042
246	0x427458a8	61.08658
247	0x3eac5b78	0.33663535
248	0x42078a0b	33.884808
249	0xbfaf547b	-1.3697656
250	0x3dec5131	0.115389235
251	0x423f0d89	47.763218
252	0x4230d7bd	44.210682
253	0x4238a918	46.16513
254	0xbead92d0	-0.33901072
255	0x42261bf7	41.52731

model.2.bias f4 [128]
0	0x4303cbb5	131.79573
1	0xbeb20479	-0.34769037
2	0xbeaa718b	-0.3328975
3	0x4303973c	131.59076
4	0xbdcbd776	-0.09953205
5	0xbeb10c55	-0.3457972
6	0x43038547	131.52061
7	0x4303ec85	131.9239
8	0x43039efc	131.62103
9	0xbe133a2b	-0.14377658
10	0x43035298	131.32263
11	0x4303c727	131.77794
12	0x43042465	132.14217
13	0xbeb1e49a	-0.34744722
14	0xbeb8cdd1	-0.36094525
15	0xbea9615b	-0.3308209
16	0x43037906	131.47275
17	0x430334f8	131.20691
18	0xbeb2d27d	-0.34926215
19	0x4303b389	131.70131
20	0x43034b32	131.29373
21	0x43042d72	132.17752
22	0x41b4f34f	22.618803
23	0x43040dec	132.05438
24	0xbeb25cce	-0.3483643
25	0x43040baf	132.04564
26	0x43036f0f	131.43382
27	0x43030c7e	131.0488
28	0x43033bd9	131.23378
29	0x3f3e3dc2	0.74312985
30	0x43040f4a	132.05972
31	0xbeb0537e	-0.344387
32	0x4303c5a3	131.77202
33	0x4303a339	131.63759
34	0xbeac5c59	-0.33664206
35	0x43037ddf	131.49168
36	0x4303cc48	131.79797
37	0x4302f45e	130.95456
38	0x430356f0	131.3396
39	0xbeb363f2	-0.3503719
40	0xbeb3bb40	-0.35103798
41	0xbeaeb9d0	-0.3412614
42	0x43030e01	131.0547
43	0xbdf5d89d	-0.12004206
44	0xbeb0fad0	-0.34566355
45	0x4303663d	131.39937
46	0xbeb9b68e	-0.3627209
47	0x4303d1a1	131.81886
48	0x4303efeb	131.93718
49	0xbeb1099a	-0.34577638
50	0x43030245	131.00887
51	0xbeb3a4fe	-0.35086817
52	0x4303c170	131.75562
53	0xbea83525	-0.32853046
54	0x4302e004	130.87506
55	0xbeb3f1bb	-0.35145363
56	0xbf0476b8	-0.5174365
57	0x4303ba7b	131.72844
58	0x4302f6e6	130.96445
59	0xbeb25869	-0.34833077
60	0xbeb0f29e	-0.34560102
61	0x43039037	131.56334
62	0xbe208d0c	-0.15678805
63	0xbd6a2f56	-0.05717405
64	0x4303d767	131.84142
65	0x43038462	131.51712
66	0x43039fc3	131.62407
67	0xbeb1a9c0	-0.3469982
68	0x4303c44a	131.76675
69	0xbc76252d	-0.015023512
70	0x430395ca	131.58511
71	0xbeab2107	-0.33423635
72	0xbea81eed	-0.32836094
73	0x43038d01	131.5508
74	0xbea8efa0	-0.3299532
75	0x43037a64	131.47809
76	0x430326d1	131.15163
77	0x43042842	132.15726
78	0x43031a63	131.10307
79	0xbeb2ba75	-0.3490788
80	0xbeb50af1	-0.3535991
81	0x43037ae4	131.48004
82	0x4303cce0	131.8003
83	0xbeacd8f3	-0.3375927
84	0x4303445a	131.267
85	0x4303b264	131.69684
86	0x4303c15d	131.75533
87	0xbeb2db72	-0.34933048
88	0x430407a3	132.02983
89	0x43039980	131.59961
90	0x430383bf	131.51463
91	0x4303fa7c	131.97845
92	0xbeaa6375	-0.33279005
93	0x43038d69	131.55238
94	0x43029994	130.59991
95	0x4302de0b	130.86736
96	0x43038538	131.52039
97	0x43035c2e	131.36008
98	0x430339eb	131.22624
99	0xbeb37314	-0.35048735
100	0xbeb03d75	-0.34421888
101	0xbeb1e75f	-0.34746835
102	0x430309e0	131.03857
103	0xbeab3985	-0.3344232
104	0x4303ee29	131.93031
105	0xbeb40d00	-0.35166168
106	0xbeaff74e	-0.34368366
107	0x4303bfce	131.74924
108	0x43036b34	131.41876
109	0x430382b8	131.51062
110	0x43030882	131.03323
111	0x43035bed	131.35909
112	0x43034845	131.2823
113	0x43039ea0	131.61963
114	0x4303c82e	131.78195
115	0x430421c2	132.13187
116	0x4303a84e	131.65744
117	0xbeaa38b8	-0.33246398
118	0x43032ddd	131.17915
119	0x430386e0	131.52686
120	0x4303341b	131.20354
121	0x43040d3e	132.05173
122	0x430300af	131.00267
123	0x430421cf	132.13206
124	0xbeb24f41	-0.3482609
125	0xbe3e1901	-0.18564226
126	0xbeae647c	-0.34061038
127	0x43037121	131.44191

model.4.weight f4 [64, 128]
0	0x3c240ae1	0.010012359
1	0xbd164992	-0.036691256
2	0x3cc3710e	0.02385762
3	0xbc5d118c	-0.013492953
4	0x3dade326	0.08490591
5	0xbba2ddeb	-0.0049703023
6	0xbd341f33	-0.043975066
7	0xbb011ade	-0.0019699852
8	0x3ceb81ae	0.02874836
9	0x3d7fda24	0.062463894
10	0x3bc70cf1	0.006074541
11	0xbdaa7581	-0.08323193
12	0x3ce50eb0	0.027961105
13	0xbca28e24	-0.019843169
14	0xbd10d8a3	-0.03536285
15	0xbcda291e	-0.026630934
16	0xbd4fe47c	-0.05075501
17	0x3cebbeba	0.028777469
18	0x3bebc3d6	0.0071949763
19	0xbd8ab80b	-0.06773385
20	0xbca1e648	-0.019763127
21	0xbe00adbf	-0.12566279
22	0x3d9411a0	0.07229924
23	0x3935ad8f	0.00017326161
24	0x3d191641	0.03737474
25	0xbde78d8c	-0.11306295
26	0xbda80e4b	-0.08205851
27	0xbdafd064	-0.08584669
28	0x3d810917	0.06300562
29	0x3c96adc7	0.01839341
30	0xbdd634f6	-0.1045932
31	0xbc10c098	-0.00883498
32	0xbc19bd20	-0.00938347
33	0x3d61e778	0.055152386
34	0xbb972b33	-0.004613304
35	0x3ca817cb	0.020519158
36	0xbd2101ad	-0.03930824
37	0x3d2c910c	0.042130515
38	0x3c5c6813	0.013452548
39	0x3c7dc236	0.015488198
40	0xbcc73768	-0.024318412
41	0xbdb8d3b1	-0.09024752
42	0xbcce4594	-0.025179662
43	0x3c312b5a	0.0108135585
44	0x3b92c566	0.004479098
45	0xbd5540a0	-0.052063584
46	0xbc6e831c	-0.014557626
47	0xbda2df8a	-0.07952793
48	0xbd822400	-0.06354523
49	0x3c865607	0.016398443
50	0xbc96f161	-0.018425645
51	0xbbc480d6	-0.0059968038
52	0xbe02aed1	-0.12762
53	0x3cab6c89	0.020925777
54	0x3d29bf96	0.041442476
55	0xbd056da9	-0.032575283
56	0xbd4fb407	-0.050708797
57	0x3d8d471d	0.068983294
58	0x3b62146d	0.0034497038
59	0xbd8a4429	-0.06751282
60	0xbdbf16d2	-0.093305245
61	0x3d1b2781	0.03787947
62	0x3c55c0bd	0.013046441
63	0xbd3c4344	-0.045962587
64	0xbdc70ce4	-0.097192556
65	0xbdc87e3f	-0.097897045
66	0x3d865418	0.06559008
67	0xbd2cfe03	-0.042234432
68	0xbd88eb29	-0.06685478
69	0x3bfa5178	0.0076391064
70	0x3d3d02ad	0.04614513
71	0xbc54c520	-0.012986451
72	0xbd2e1aaf	-0.042505916
73	0xbdaa9b1d	-0.08330367
74	0xbd992bf7	-0.07479089
75	0xbc1e8bd9	-0.009676897
76	0x3c4ed910	0.012624994
77	0xbdb87760	-0.09007144
78	0xbd5dc962	-0.05414713
79	0xbde27880	-0.1105814
80	0xbc8c2aaa	-0.017110188
81	0x3c5f7768	0.0136393085
82	0x3a84deaa	0.001013716
83	0x3d3a9f79	0.04556224
84	0xbcd8e16d	-0.026474679
85	0xbdf13d6f	-0.11779296
86	0x3ca67676	0.020320158
87	0x3c61f789	0.013791927
88	0x3ac750f9	0.0015206627
89	0xbd1aaf52	-0.037764855
90	0xbd373260	-0.044725776
91	0xbdcafef6	-0.09911911
92	0xbd8f89b4	-0.07008687
93	0xbd455d72	-0.04818482
94	0x3d2ef3c9	0.04271296
95	0xbc80ad1a	-0.015707541
96	0x3d0e047f	0.034672257
97	0x3d07c24e	0.033144288
98	0xbce88913	-0.028385675
99	0x3d966dbf	0.07345151
100	0xbbeae395	-0.007168243
101	0xbd76074b	-0.06006555
102	0x3d931380	0.07181454
103	0x3d2e12f4	0.042498544
104	0xbddf4092	-0.10900988
105	0xbcb51b15	-0.02210764
106	0xbda59fb6	-0.08087103
107	0x3cc36f4e	0.023856785
108	0xbdbe36f8	-0.09287828
109	0xbd71076a	-0.05884496
110	0xbc545bac	-0.012961309
111	0xbdca4a3d	-0.09877441
112	0xbdc8527f	-0.0978136
113	0xbd96ffc6	-0.07373004
114	0x3c8aa349	0.016923564
115	0xbd9c4cfa	-0.076318696
116	0xbd84ba0d	-0.06480799
117	0xbd2e6283	-0.042574417
118	0xbd6c471a	-0.057684995
119	0xbdd10ad8	-0.102071464
120	0xbd1ea108	-0.03872779
121	0xbd2f1844	-0.04274775
122	0xbd145d4e	-0.036221795
123	0xbde9f3da	-0.11423464
124	0x3ceec753	0.02914778
125	0x3c00662b	0.007836859
126	0x3d26d42b	0.040729683
127	0xbdab4177	-0.08362096
128	0x430315a3	131.08452
129	0xc267803a	-57.87522
130	0xc26b3e1d	-58.810658
131	0x4302a175	130.63069
132	0x3d08a07d	0.03335618
133	0xc26e9aa4	-59.651016
134	0x430303c7	131.01476
135	0x43032ddb	131.17912
136	0x4302b32b	130.69987
137	0xbd9c8c6f	-0.07643973
138	0x430320df	131.1284
139	0x4302c6dc	130.7768
140	0x4302da17	130.85191
141	0xc26aa334	-58.659378
142	0xc26bf52e	-58.989433
143	0xc26a8200	-58.626953
144	0x4302eb85	130.92
145	0x4302f643	130.96196
146	0xc26e1e1f	-59.529415
147	0x4302d961	130.84914
148	0x4302b8d3	130.72197
149	0x4303256f	131.14622
150	0x41c729fb	24.895498
151	0x4302fd23	130.98882
152	0xc26cd6c9	-59.20975
153	0x430317d7	131.09312
154	0x4303ecad	131.92451
155	0x4303efe5	131.93709
156	0x43026108	130.37903
157	0xc0fbb634	-7.8659916
158	0x4302f135	130.94221
159	0xc26c3b9a	-59.058205
160	0x43032a60	131.16553
161	0x430320cd	131.12813
162	0xc26cbb50	-59.182922
163	0x43038fec	131.5622
164	0x4302d1d9	130.81972
165	0x43025d66	130.36484
166	0x43036250	131.38403
167	0xc266fcf7	-57.747036
168	0xc2697002	-58.359383
169	0xc26d6ea7	-59.35806
170	0x43030a82	131.04105
171	0xc26a2c6d	-58.543385
172	0xc269f9a8	-58.493805
173	0x43033e7b	131.24406
174	0xc269fa1f	-58.49426
175	0x430314a8	131.08069
176	0x43030de7	131.0543
177	0xc2698398	-58.37851
178	0x43039dfe	131.61716
179	0xc26bbb29	-58.932774
180	0x43039e49	131.6183
181	0xc2691dfc	-58.27928
182	0x4303b0de	131.69089
183	0xc26ab265	-58.674213
184	0xc26adc6d	-58.71526
185	0x4302c549	130.77065
186	0x43034639	131.2743
187	0xc26919ed	-58.27532
188	0xc26d978f	-59.398006
189	0x4303393d	131.22359
190	0xbd1d1045	-0.038345594
191	0x3d0bcbe9	0.03413001
192	0x4303126d	131.07198
193	0x43035944	131.3487
194	0x4302ca80	130.79102
195	0xc2681461	-58.0199
196	0x4302f9ed	130.97627
197	0xc210f261	-36.2367
198	0x4302e182	130.88089
199	0xc26d76a4	-59.36586
200	0xc26ee7af	-59.726254
201	0x430330af	131.19017
202	0xc2655329	-57.33121
203	0x4302d4ea	130.8317
204	0x4303ce2d	131.80537
205	0x430327b2	131.15506
206	0x4302812c	130.50458
207	0xc268096b	-58.009197
208	0xc26c4375	-59.065876
209	0x43031178	131.06824
210	0x4302739e	130.45163
211	0xc266125d	-57.517933
212	0x4302fd81	130.99025
213	0x430353de	131.3276
214	0x43035357	131.32555
215	0xc2681fcb	-58.031048
216	0x4302e294	130.88507
217	0x43038521	131.52003
218	0x43036738	131.4032
219	0x43030263	131.00932
220	0xc269496a	-58.321693
221	0x4302dd4c	130.86444
222	0x430223d8	130.14001
223	0x4303e141	131.8799
224	0x4302c199	130.75624
225	0x43036360	131.38818
226	0x4303600a	131.37515
227	0xc269caa2	-58.447884
228	0xc26dc20a	-59.43949
229	0xc26c0724	-59.006973
230	0x43034a08	131.28918
231	0xc2624c05	-56.574238
232	0x43033776	131.21664
233	0xc268d8e6	-58.211815
234	0xc2658859	-57.383152
235	0x43034129	131.25453
236	0x4303480c	131.28143
237	0x43038396	131.514
238	0x43040dca	132.05386
239	0x43034d70	131.30249
240	0x430318c3	131.09673
241	0x43037f32	131.49686
242	0x4302e863	130.90776
243	0x4303026e	131.00949
244	0x4302f48e	130.95529
245	0xc26ab2b8	-58.67453
246	0x4303a1a8	131.63147
247	0x4302b88c	130.72089
248	0x43040582	132.02151
249	0x4302d04c	130.81366
250	0x4303ba88	131.72864
251	0x43030311	131.01198
252	0xc26ac92a	-58.69645
253	0xbc5fbd23	-0.013655934
254	0xc2681a6d	-58.025806
255	0x4303289e	131.15866

model.4.bias f4 [64]
0	0xbdcafc9a	-0.09911461
1	0x4302fbe3	130.98393
2	0x4303e368	131.8883
3	0x4303858b	131.52165
4	0x4304bdd5	132.74153
5	0x430341bf	131.25682
6	0x42c31051	97.53187
7	0x43048bec	132.54657
8	0xbce89705	-0.028392324
9	0x43034586	131.27158
10	0x4303ca28	131.78967
11	0x43042f2c	132.18427
12	0x4303b4c7	131.70616
13	0x42bf89d9	95.76923
14	0x43053a2b	133.22722
15	0x42bc781c	94.23459
16	0x4304a7de	132.65573
17	0x4304e62d	132.89912
18	0x430348b5	131.28401
19	0x4303c2f4	131.76154
20	0x43041a29	132.10219
21	0x430431b3	132.19414
22	0x42b7213b	91.5649
23	0x4303c0a2	131.75247
24	0x42be0d8e	95.026474
25	0x4302ed49	130.9269
26	0x42bdd982	94.92482
27	0x43033b4f	131.23167
28	0x4303e01e	131.87546
29	0x4302c619	130.77382
30	0xbdda53cc	-0.10660514
31	0x43043064	132.18903
32	0xbe2c9fb3	-0.16857795
33	0x43046292	132.38504
34	0xbd4657bc	-0.048423514
35	0xbde31d78	-0.11089605
36	0x42bcb4ae	94.35289
37	0x430393a8	131.57678
38	0x43048a1b	132.53947
39	0x43043b7a	132.23233
40	0xbe8f279a	-0.279599
41	0x430459ef	132.3513
42	0x4303e04d	131.87617
43	0x43041420	132.07861
44	0x43049339	132.57509
45	0x42bf4362	95.63161
46	0x42bcd7db	94.42159
47	0x430344ca	131.2687
48	0xbe0622ad	-0.13099165
49	0x42b84621	92.13697
50	0x43039be1	131.6089
51	0x43047cda	132.4877
52	0x42c15db0	96.68298
53	0x42bab5cb	93.355064
54	0x4301ebe8	129.92151
55	0x4304d8b8	132.84656
56	0x4303a9f7	131.66393
57	0x4303f45c	131.95453
58	0xbd423421	-0.047412995
59	0x4301c3b6	129.7645
60	0x42123268	36.549225
61	0x43027a79	130.47841
62	0x42ff8a23	127.7698
63	0x4303fa11	131.97682

model.6.weight f4 [9, 64]
0	0xbdaf9388	-0.08573061
1	0x3f42d53a	0.7610661
2	0x3f94fbaa	1.1639302
3	0x40014917	2.020086
4	0x3fb3ff81	1.4062349
5	0x40087ada	2.1324983
6	0xc11d54c0	-9.833191
7	0x3fb7628c	1.4326949
8	0xbd18ac1c	-0.03727351
9	0x4010024a	2.2501397
10	0x3fd7f037	1.6870183
11	0x3fc27e43	1.5194782
12	0x3ff16225	1.8858076
13	0xc127e205	-10.492681
14	0x3fc1d2b5	1.5142428
15	0xc11f6f14	-9.964619
16	0x3fa988f4	1.324492
17	0x3fbf10d1	1.4927007
18	0x3fbb0c32	1.4613097
19	0x3f84a49a	1.0362732
20	0x3fa92764	1.3215146
21	0x3fb63ad9	1.4236709
22	0xc12b0c16	-10.690451
23	0x3fec3338	1.8453131
24	0xc120f1df	-10.059051
25	0x3fdf2d6e	1.7435739
26	0xc1285ed4	-10.523151
27	0x4017b9ef	2.3707235
28	0x3fc75b6f	1.5574778
29	0x4020da34	2.513318
30	0x3d6c4e4f	0.05769187
31	0x3fda7b1d	1.7068821
32	0xbed29fc6	-0.41137522
33	0x3fad3b26	1.3533676
34	0xbd49cdb8	-0.049268454
35	0xbda063b1	-0.078315146
36	0xc122c38a	-10.172739
37	0x400b2e38	2.174696
38	0x3fb0a8a2	1.3801463
39	0x3fbebffe	1.4902341
40	0x3e1fa13b	0.15588848
41	0x3fcda8ea	1.6067173
42	0x3fa4d3d6	1.2877147
43	0x3fa18189	1.2617656
44	0x3fd8d10f	1.69388
45	0xc126f81a	-10.435572
46	0xc12f5d41	-10.960267
47	0x4004bdaf	2.0740774
48	0x3ccdca6f	0.025120942
49	0xc123255e	-10.196623
50	0x3fd9a70f	1.7004107
51	0x3fb1dd1a	1.38956
52	0xc11d7925	-9.842076
53	0xc1331b60	-11.194183
54	0x402cc404	2.6994638
55	0x3faa4bba	1.330436
56	0x3f7f3c15	0.9970105
57	0x3fc185cf	1.511896
58	0xbddb1060	-0.10696483
59	0x3fb3a372	1.4034255
60	0x423b3d0d	46.80962
61	0x3fcf5a0d	1.6199356
62	0x3fcf3f12	1.6191123
63	0x3fc5e7d1	1.546137
64	0xbd5a8c92	-0.053356715
65	0x417b98bc	15.724789
66	0x417987c0	15.595642
67	0x417684cc	15.407421
68	0x4177e960	15.494476
69	0x417abc04	15.670902
70	0xc125d4e9	-10.36448
71	0x417959c8	15.584419
72	0xbd9462e5	-0.07245425
73	0x417b081e	15.689482
74	0x417aaa3a	15.666559
75	0x41797f9a	15.593653
76	0x417a5c0e	15.647474
77	0xc1230172	-10.187853
78	0x41792b1a	15.573023
79	0xc121df54	-10.117023
80	0x4178207e	15.507933
81	0x4179c5cc	15.61079
82	0x417c82b2	15.781908
83	0x417d22f6	15.821035
84	0x4177a138	15.47686
85	0x41799222	15.598177
86	0xc135288b	-11.322398
87	0x417c880e	15.783216
88	0xc11c8a86	-9.783819
89	0x41847c2c	16.56063
90	0xc118d023	-9.550815
91	0x4179b08e	15.605604
92	0x417a22d6	15.633505
93	0x4179b91a	15.607691
94	0x3e2faae9	0.17155041
95	0x41785b54	15.522297
96	0x3ea7c48d	0.32767144
97	0x417854f2	15.520739
98	0xbd3c2d7a	-0.045941807
99	0x3c9e8700	0.019351482
100	0xc1106264	-9.024021
101	0x417cbd12	15.79616
102	0x4179e666	15.61875
103	0x417795d0	15.474075
104	0xbf57daee	-0.84318435
105	0x41792a4c	15.572826
106	0x417a20d0	15.633011
107	0x41786b86	15.526251
108	0x417832dc	15.512417
109	0xc11abeec	-9.671612
110	0xc124f238	-10.309135
111	0x417d07c4	15.814396
112	0xbde2e2d7	-0.110784225
113	0xc121a154	-10.101887
114	0x417658a2	15.396639
115	0x4177e74e	15.493971
116	0xc11ada9e	-9.678373
117	0xc12b442e	-10.704145
118	0x417f513e	15.9573345
119	0x4177b2aa	15.481119
120	0x417d43c6	15.829046
121	0x4179deac	15.616863
122	0x3ca1b21c	0.01973825
123	0x41798772	15.595568
124	0x41f4a9ba	30.582874
125	0x418063a2	16.048649
126	0x416edd3d	14.929013
127	0x4177a108	15.476814
128	0xbb06581c	-0.0020499295
129	0x42b94cb9	92.64985
130	0x42b9c7ba	92.89009
131	0x42ba873a	93.264114
132	0x42ba4cb1	93.14979
133	0x42bb633e	93.69383
134	0x42829602	65.292984
135	0x42ba4415	93.13297
136	0x3d9a3013	0.07528701
137	0x42bb7048	93.7193
138	0x42ba0d73	93.02627
139	0x42ba1ead	93.05991
140	0x42bad7a6	93.42119
141	0x42829005	65.28129
142	0x42ba35c3	93.105
143	0x4281ae60	64.840576
144	0x42ba578a	93.170975
145	0x42ba11bf	93.03466
146	0x42bae99b	93.45626
147	0x42ba6849	93.20368
148	0x42ba3556	93.10417
149	0x42ba3a1b	93.11349
150	0x4280be5a	64.37178
151	0x42bae12a	93.43977
152	0x4282569b	65.16915
153	0x42ba7b02	93.24025
154	0x428209f0	65.01941
155	0x42bb75e7	93.73028
156	0x42b9fda0	92.99536
157	0x42bc4000	94.125
158	0x3e9e4df5	0.30918851
159	0x42bad63f	93.41845
160	0x3e694c56	0.22783026
161	0x42ba1878	93.04779
162	0x3d737244	0.059435144
163	0xbdc349a4	-0.0953553
164	0x4281d2f1	64.911995
165	0x42bafe3b	93.496544
166	0x42ba56ec	93.16977
167	0x42ba6e31	93.21522
168	0xbe817aff	-0.2528915
169	0x42ba5840	93.17236
170	0x42b9e77b	92.95211
171	0x42b9f1a4	92.971954
172	0x42bab4f6	93.35344
173	0x42813229	64.59797
174	0x4281160c	64.54306
175	0x42bb1a1b	93.55099
176	0x3ccf1a75	0.02528117
177	0x42810852	64.51625
178	0x42ba9bc3	93.30422
179	0x42baee17	93.46502
180	0x4282d01b	65.406456
181	0x42810379	64.50678
182	0x42bb6be4	93.710724
183	0x42ba7294	93.223785
184	0x42b96b3a	92.70943
185	0x42ba1f7e	93.06151
186	0x3ddd3d09	0.10802657
187	0x42bad38c	93.41318
188	0xc0d4f971	-6.6554494
189	0x42b9c95b	92.89327
190	0x42bb9832	93.79726
191	0x42b9f82b	92.9847
192	0xbd962abe	-0.07332371
193	0x4267c974	57.94673
194	0x42685538	58.08322
195	0x42682509	58.036167
196	0x42680c67	58.01211
197	0x4267f3fc	57.988266
198	0x41f668bb	30.801138
199	0x42687f81	58.124516
200	0xbd930131	-0.071779616
201	0x426893be	58.14428
202	0x42681328	58.018707
203	0x42676853	57.85188
204	0x4267b8d5	57.9305
205	0x41ef01c4	29.875862
206	0x426838cc	58.055466
207	0x41f34343	30.407843
208	0x426845b0	58.068054
209	0x42689041	58.140873
210	0x426a3aa6	58.557274
211	0x42688006	58.125023
212	0x426868ab	58.102215
213	0x4267b267	57.92422
214	0x41e60ba7	28.75569
215	0x426863ab	58.097332
216	0x41efab0c	29.958519
217	0x426a5e76	58.592247
218	0x41ebf5e1	29.495058
219	0x4267fe14	57.998123
220	0x42682a88	58.041534
221	0x42690b8a	58.26127
222	0xbe84e20d	-0.25953713
223	0x426871c2	58.11109
224	0xbe867a5d	-0.2626523
225	0x426803c0	58.003662
226	0x3d96cbe0	0.07363105
227	0xbe094a6e	-0.13407299
228	0x41f696eb	30.82369
229	0x42682bb6	58.042686
230	0x4267882c	57.88298
231	0x42686f06	58.10842
232	0x3e31c3a5	0.17359789
233	0x4267c2f6	57.94039
234	0x4267c756	57.944664
235	0x42686403	58.097668
236	0x4267b934	57.930862
237	0x41f344fb	30.408682
238	0x41ef332b	29.899984
239	0x42684d8f	58.07574
240	0x3cd1521c	0.025551848
241	0x41eb1667	29.385939
242	0x426751fb	57.83006
243	0x426816c0	58.022217
244	0x41fb6f19	31.429247
245	0x41e90b89	29.130632
246	0x42668408	57.628937
247	0x42687958	58.1185
248	0x4268af23	58.171032
249	0x426777f1	57.86713
250	0x3ded3e60	0.11584163
251	0x4269076e	58.257256
252	0x416b3592	14.700579
253	0x426a30b7	58.547573
254	0x4264cecb	57.201946
255	0x4267d028	57.953278

model.6.bias f4 [9]
0	0x4171871e	15.095488
1	0x419fc473	19.970922
2	0x42b9877d	92.764626
3	0x4245c7d0	49.44513
4	0x4303c6c8	131.77649
5	0x40999c8a	4.800359
6	0x4141dc60	12.1163025
7	0x42b3c339	89.881294
8	0x40fc9649	7.8933454
