models/dqn/model.pth (torch, 429211 bytes, 20 tensors)

model.0.weight f4 [256, 12]
000000 96 f2 c6 3f 69 a8 67 3f 0e 23 94 3f 73 e3 37 bf
       1.5542781 0.9049135 1.1573198 -0.71831435
000010 26 c3 ae be 81 0c f4 3d 3b 41 6a 3e 29 7b 97 be
       -0.3413326 0.119164474 0.22876446 -0.2958615
000020 6d 49 06 3f 59 0c 00 c0 52 f0 83 3f e0 68 00 bf
       0.5245579 -2.0007536 1.0307715 -0.50160027
000030 ee 8e eb 3d b0 7f c9 3f b1 4f 99 bf 9c 4b 38 be
       0.11501871 1.5742092 -1.1977445 -0.17997593
000040 1b 77 26 bf 66 51 76 3f 92 8e b3 3e 0c be 6b 3f
       -0.6502549 0.96217954 0.3506971 0.92086864
000050 46 79 5d be af a4 6e 3c 02 b6 d0 3e 1d 8b 06 bf
       -0.21628293 0.014565631 0.4076386 -0.5255602
000060 3f ea 5a bf 8c 7a a8 bf 9c a0 cf bf 10 a3 29 bf
       -0.8551368 -1.3162398 -1.6220889 -0.6626444
000070 da b3 a9 3d 01 86 e3 3e 3b fc 5e be 79 63 5b 3f
       0.08286257 0.44438174 -0.21775906 0.8569866
000080 ef 91 88 3c 70 1d 12 bf a7 c6 af bf d6 4e 47 bd
       0.016671149 -0.5707617 -1.3732499 -0.04865917
000090 a7 da 8e bf 2f c5 0c bf c1 c1 20 be 18 cb f7 3e
       -1.1160477 -0.5498838 -0.15698911 0.48397136
0000a0 9c 90 20 3f 9d 03 88 3f ab 70 d7 be f9 3e 54 3e
       0.62720656 1.0626103 -0.42078146 0.20727147
0000b0 75 24 3d 3f 46 db 7b bf d2 24 b7 bf 3a ed 26 3f
       0.73883754 -0.9838146 -1.4308112 0.6520573
0000c0 a8 b8 b0 bf da 1a 4c 3c 7f 3d 64 bd 25 98 9f be
       -1.3806353 0.012457574 -0.05572271 -0.31170765
0000d0 ac 8f d7 bd 1b d4 76 3f da 90 db be d0 7b d5 bd
       -0.1052545 0.964174 -0.4288395 -0.10424006
0000e0 28 e3 66 3f 91 73 77 3f 62 57 02 c0 54 3f b8 bd
       0.9019036 0.96660715 -2.0365834 -0.08996454
0000f0 1e 5a 11 c0 93 31 35 3f 40 81 1a bf ea 79 49 3e
       -2.2711253 0.7077877 -0.6035347 0.19675413
000100 d2 31 b9 3e ae 4f 7f 3e 88 a1 11 3f ac cf bd bd
       0.36170822 0.24932739 0.568871 -0.09268126
000110 f6 54 ae bf 5a 6c 99 bf 55 dc 1e bf 1c 2f a8 3e
       -1.3619678 -1.1986191 -0.6205495 0.32848442
000120 c5 81 d5 3f 59 f5 a3 bf 70 58 a3 3c a3 21 19 3e
       1.6680228 -1.2809249 0.019939631 0.14954238
000130 6f db 49 3e 3c f9 ea be f3 1f 72 bf e5 c1 c6 bf
       0.19712614 -0.45893276 -0.9458 -1.5527922
000140 1a bc 02 3f 65 c5 d5 bf 12 cc 45 bf ea 74 9e 3d
       0.5106827 -1.6700865 -0.7726451 0.07737143
000150 9c f7 43 3f 9f cf 99 bf 56 42 3d 3f f5 a5 e9 be
       0.76549697 -1.2016486 0.73929346 -0.45634428
000160 b0 5e e0 bc 40 66 13 bf c4 c6 e3 3e fa 4d 48 bf
       -0.0273889 -0.57577896 0.44487584 -0.7824398
000170 76 03 d7 be ec 06 a1 bf b9 21 ee 3f 4d d5 d0 bd
       -0.41994828 -1.2580237 1.8604041 -0.10196934
000180 cb 58 1d 3e 35 72 ca bf 04 5b e4 bf d3 62 a3 3f
       0.15365903 -1.5816103 -1.7840276 1.2764534
000190 3b 4e e0 be 3a 64 61 3e c3 5f ca 3e d9 07 7a 3d
       -0.43809685 0.2201089 0.39526185 0.06104264
0001a0 0e ff dd 3d 35 5e 8e 3e c4 32 97 bd c6 ad 7d bc
       0.108396634 0.2780625 -0.0738273 -0.015483325
0001b0 a9 d2 c4 3e 80 ce 70 bf d2 bb 18 bf 86 5f 7f 3e
       0.3844197 -0.94065094 -0.5966159 0.24938783
0001c0 94 c8 33 3e a5 ee 59 bf 6b 59 84 be 78 ec 47 bf
       0.17556983 -0.8512977 -0.2584947 -0.780952
0001d0 6d fd 8c 3f 10 d1 a2 bf 81 f1 9d bd 4c c5 8b 3e
       1.101484 -1.2720051 -0.07712079 0.27298963
0001e0 c0 48 50 3f 7b a7 4f 3f 9d 63 8f 3f cc 82 1a be
       0.8136101 0.8111493 1.1202275 -0.15088958
0001f0 42 2e 65 3d 83 a9 0a be 3f 4d e6 3e 03 b4 99 3f
       0.055952318 -0.13541226 0.4498081 1.200806
000200 d1 75 09 be 69 39 67 3e 09 a0 ae bf 98 43 d5 3d
       -0.1342385 0.22580494 -1.3642589 0.10413283
000210 45 87 81 be 07 15 2b bf 9b 86 11 be f3 e9 18 bf
       -0.25298515 -0.6682896 -0.14211504 -0.5973198
000220 6c 26 91 3e 8a ab 57 3e 73 e1 6d 3f 85 33 47 3f
       0.28349626 0.2106153 0.92922133 0.7781299
000230 d6 19 14 3f 61 d5 c6 bf 34 8e 29 c0 3a d9 8b 3e
       0.5785192 -1.5533868 -2.6493044 0.27314168
000240 1e ca d8 bf 20 cb 24 bf 39 1e a3 3f fc 40 03 3f
       -1.6936681 -0.64372444 1.2743598 0.51271033
000250 a5 85 6f be 4c 1d 09 be 41 64 23 3f d5 d0 46 bf
       -0.23390825 -0.13390082 0.6382485 -0.776624
000260 b5 ab 2e bd 00 5f 88 bf 8e 7c 0f c0 68 48 95 bd
       -0.04264422 -1.0653992 -2.2419772 -0.07289201
000270 98 8c 8a 3f 36 c1 3b 3f 01 2b 0b bf 43 69 d6 3f
       1.0824156 0.7334169 -0.54362494 1.6750873
000280 f3 60 f5 bd 64 d9 8d bd ae 76 45 3f c6 f8 17 3e
       -0.11981382 -0.069262296 0.77134216 0.14840993
000290 1d ae 09 be 23 ec 92 3e 70 2e 8b 3f a5 19 80 3e
       -0.13445325 0.28695783 1.0873547 0.25019565
0002a0 2c 32 63 bf 17 4c 8a bf 0d 9e 8c 3e d9 6f 42 3f
       -0.8874843 -1.0804471 0.27464333 0.75951916
0002b0 2a bd 6e bd 28 00 59 3f c1 e6 06 3f ae fa 0f 3f
       -0.05828587 0.84765863 0.5269585 0.5624188
0002c0 cd 78 1f bf 58 27 46 bf 24 17 ad be 58 0c e7 3e
       -0.622937 -0.77403784 -0.33806717 0.45126605
0002d0 f5 94 d9 bf 75 f9 89 bf fa d6 19 bf b0 32 54 3f
       -1.6998583 -1.0779253 -0.60093653 0.82889843
0002e0 07 f6 f0 3f ca ca 58 bf a6 a4 16 3f aa 4c 17 bf
       1.8825082 -0.8468443 0.58844984 -0.59101355
0002f0 52 09 60 bf e9 6c 0d bf 2d 43 f1 be 54 4a de 3f
       -0.8751422 -0.5524431 -0.47121564 1.7366433
000300 04 0a af bf 30 02 02 be cf 8c e6 bd 83 47 fa be
       -1.3674932 -0.12696147 -0.11257326 -0.48882684
000310 f6 15 2f bd 19 47 81 3f 37 56 f9 be 41 46 22 be
       -0.042745553 1.0099822 -0.4869859 -0.15847112
000320 6e a4 83 3f a8 85 92 3f eb 70 b7 bf a1 56 e5 3d
       1.0284555 1.1447039 -1.4331335 0.11198164
000330 af 87 a0 3f 47 7c a6 bf 0e 41 3f bf 61 06 d1 3e
       1.2541407 -1.3006676 -0.7470864 0.4082518
000340 c0 d6 54 3f aa 64 d5 3e 86 50 d4 bd 21 ff a3 3e
       0.8314018 0.41678363 -0.10366921 0.32030585
000350 94 6d 55 3e b0 56 1a bf 3a 47 81 bf 8c 97 98 3e
       0.20842582 -0.60288525 -1.0099862 0.2980312
000360 c2 61 87 bf 92 74 d0 be 49 05 8e 3f 06 88 12 3f
       -1.0576708 -0.40713936 1.1095363 0.57238805
000370 83 7e d3 be 11 db 30 be 54 07 33 bf 54 87 c8 bd
       -0.41307458 -0.17271067 -0.69933057 -0.09791437
000380 03 de 77 3e aa 65 18 c0 a7 88 d9 3f ad 96 d6 3c
       0.24205784 -2.381205 1.6994828 0.026194895
000390 20 16 80 3f dd 6a 59 3f 42 84 c7 be 8c 66 b7 3e
       1.0006752 0.84928685 -0.38968092 0.35820425
0003a0 27 15 a2 3d 8a b4 45 3e 5c 42 90 bd c2 95 25 3f
       0.07914191 0.19307151 -0.07043907 0.6468164
0003b0 89 81 e3 3f f6 32 81 3f 1b 07 45 3f f3 0a 8f 3e
       1.7773906 1.0093677 0.7696397 0.2793804
0003c0 93 80 39 c0 ad c2 9f bf 5c a8 3b 3f c4 38 58 3e
       -2.8984725 -1.2481285 0.7330377 0.21115404
0003d0 c4 af 2d bb a1 c0 10 bf 83 1e af 3e 79 d9 a7 be
       -0.002650247 -0.5654393 0.34202966 -0.32783106
0003e0 37 48 c5 bf fb e6 13 3e cf ea b9 3f 41 f0 ea 3e
       -1.5412663 0.14443581 1.4524783 0.45886424
0003f0 86 b4 f2 be ea 36 1a bf a5 91 8c 3d b3 d6 0b 3f
       -0.47403353 -0.6024004 0.06863717 0.5462448

model.0.bias f4 [256]
000000 49 b2 04 3e e6 62 2a bd 17 87 4a bc 99 d2 8c 3c
       0.12958635 -0.041598223 -0.0123613095 0.017190265
000010 b6 9a 83 be 5d e1 66 be 19 0b 2b 3e 0b 39 cb 3c
       -0.25703973 -0.22546907 0.16703452 0.024807474
000020 93 41 65 3e be 51 cb 3d 01 65 1a 3e ef db 79 be
       0.22388296 0.099277005 0.15077592 -0.24400304
000030 84 5e 67 bd 24 ce 2b 3e 6c 4e 8f 3b 90 c6 b7 3e
       -0.05648662 0.16777855 0.0043733623 0.3589368
000040 b9 28 63 be 46 12 60 be a9 b1 65 bd c6 7d 55 3e
       -0.22183503 -0.21881971 -0.056077633 0.2084876
000050 39 09 4b 3e c1 43 c8 bb 04 09 2e 3d ea 34 4f 3e
       0.19827737 -0.0061115925 0.042489067 0.20235029
000060 a5 9c bc 3e 95 f4 3a 3d 8d 16 13 be 0a b6 22 3d
       0.3683826 0.045643408 -0.14364071 0.039724387
000070 23 ff 5a be 50 7d bb bc ad 3a c9 be ea b4 f9 bc
       -0.2138639 -0.022886902 -0.3930258 -0.030481774
000080 7f 97 b8 bd 91 39 1b 3e e1 bf 9f 3d 4d e6 ae 3e
       -0.090132706 0.15158679 0.0780027 0.3416008
000090 71 45 ba 3e fb 46 b1 3c 04 e0 2a be 0a b8 e7 3d
       0.36381105 0.021640291 -0.16687018 0.113143995
0000a0 cd 58 56 3e 6d af 0b 3c d4 4f d3 3d d8 a5 50 bd
       0.20932312 0.0085257115 0.103179604 -0.05093941
0000b0 ca c2 45 3e da 31 5b be ae 26 18 3d f5 65 2d 3e
       0.19312587 -0.21405736 0.037146263 0.16933425
0000c0 33 68 b2 3e 83 d7 6c 3a f9 8d 97 3c 13 a0 76 3e
       0.34845123 0.00090347993 0.018500315 0.24084501
0000d0 88 1f 04 be be e9 f4 bd a4 97 bb bd f6 0b 96 3d
       -0.12902653 -0.11958645 -0.091597825 0.073265
0000e0 d7 bc 74 bc 27 f7 f8 3d b3 55 9d 3e 70 25 88 bd
       -0.014937601 0.121565156 0.30729446 -0.06647766
0000f0 a1 ce 87 3c b4 c7 da bd 75 2e 8f 3e 00 2b b9 3e
       0.01657802 -0.106826216 0.2796513 0.3616562
000100 04 1b 4a be 2e 66 1d 3e d7 e0 17 3e c2 95 3e 3e
       -0.19736868 0.1537101 0.14831863 0.18611816
000110 81 94 76 be f4 f5 3b 3e b6 be 22 be e2 19 84 bd
       -0.24080087 0.18355542 -0.15893063 -0.06450249
000120 1d ee 82 3d e4 f3 29 3d ab ca 2f bd e2 dc ee bd
       0.06393073 0.041492358 -0.04291789 -0.11663224
000130 56 83 a3 be df 38 a1 bd 84 c9 be 3e e1 05 5a bd
       -0.3193614 -0.078721754 0.3726312 -0.053228263
000140 c7 60 27 3e d5 db b2 3e 3c af ef 3e 90 50 a8 bd
       0.16345511 0.34933344 0.4681338 -0.08218491
000150 bb ac 87 3e dc 40 38 3d d3 08 6f 3c 6a a1 e5 bd
       0.2649897 0.04498373 0.014589506 -0.11212428
000160 96 f0 f2 3d 9c 0d 8c 3e 7c b2 58 3e c2 45 4c 3e
       0.118622944 0.27354133 0.21161836 0.19948485
000170 9a 47 01 3e b7 b5 f5 3c a9 22 5e 3e f8 83 4b bc
       0.1262497 0.029993875 0.2169291 -0.0124216005
000180 c7 c5 88 3e b7 ff d8 3e 9c 98 4d bd fc 10 c8 3d
       0.26713392 0.42382595 -0.050194368 0.097688645
000190 7d 23 61 bc 02 4d a7 3d a2 a4 cb 3d 1d af f1 3d
       -0.013741371 0.08168985 0.099435106 0.11800978
0001a0 ab e1 07 3f b6 ac e4 be 63 e4 0b 3e 92 f2 47 3d
       0.53078717 -0.44663018 0.13661341 0.048815317
0001b0 1a 1e 52 be 09 e6 c5 bd 0f 0c 8f bd da 61 75 be
       -0.20519295 -0.09663016 -0.06984722 -0.23963109
0001c0 7e aa 06 3e 63 d6 96 3e 83 80 ef 3e 67 e6 55 be
       0.13150975 0.2946044 0.46777734 -0.20888673
0001d0 c9 36 11 3f 39 db 74 bd 00 42 44 3d 76 ae 7e bd
       0.5672422 -0.05977938 0.047914505 -0.062178098
0001e0 bd 87 c7 3d d9 dd 51 3e 98 27 06 3d 44 a5 92 bc
       0.09742687 0.20494784 0.032752603 -0.01790107
0001f0 1f bc 6b 3e 02 18 9f be 7f 4e 27 3d 6f c4 eb bb
       0.23020981 -0.31073004 0.040846344 -0.0071950476
000200 48 6e a6 3e 27 ad a7 bc 11 a9 bd 3d 05 0d 21 3d
       0.32506013 -0.020468308 0.092607625 0.039319057
000210 5e f1 f0 3e 0f 5a e3 3d e3 25 b0 bd 7a 73 21 be
       0.4705915 0.11101162 -0.08600976 -0.15766707
000220 6f 09 47 bd 53 db 75 3d 0d 3e 3a bd 58 c3 7b 3d
       -0.04859298 0.060023617 -0.045469332 0.06146559
000230 c6 ee 9a 3d 17 ff 0d 3e 91 07 cf bc 33 7a cd 3e
       0.07565074 0.1386684 -0.025272163 0.40132293
000240 ed 61 06 3e 64 dc 16 be 64 19 e1 3d 90 63 52 bd
       0.13123293 -0.1473251 0.10991171 -0.05136448
000250 33 07 47 3e f3 76 6c 3e cb 5c 15 3c 06 5b 90 3e
       0.1943634 0.2309225 0.009116362 0.28194445
000260 80 a4 5f be 1e 1a 5d 3e 34 9d d1 bd 27 89 53 be
       -0.21840096 0.21591994 -0.10235062 -0.20657788
000270 e2 d3 f5 bd 1f cb 77 bd b0 2e 1e 3d db e9 8f 3e
       -0.12003304 -0.060496446 0.038618743 0.28108105
000280 45 88 03 be 77 1f 60 be a3 28 85 3e b1 15 b7 3c
       -0.12844951 -0.21887003 0.26007566 0.02234921
000290 3c d9 40 3e 8d 40 69 3e e9 d3 09 be 19 79 8d bd
       0.18832868 0.2277853 -0.13459744 -0.06907863
0002a0 5b e0 5c 3e 81 f7 29 3e 0c 31 07 bd 09 eb b6 3e
       0.2156996 0.16598321 -0.03300576 0.35726193
0002b0 d8 a8 60 3e 90 fe c3 be 63 ff f0 bd d3 be c6 3d
       0.21939409 -0.38280153 -0.11767461 0.097043656
0002c0 60 13 77 3e 9e 9c 0f be 0b 52 1c be a5 a7 67 3d
       0.24128485 -0.14024588 -0.15265672 0.056556363
0002d0 85 62 f0 3d 10 4e 99 bd dc 41 77 be 7d 66 94 be
       0.11737541 -0.07485592 -0.24146217 -0.28984442
0002e0 43 ef c7 3d 03 07 fb 3e a3 fc af 3d 21 c0 2c 3d
       0.097624324 0.49028787 0.085931085 0.042175416
0002f0 a5 73 f5 bd 77 75 24 3e f9 05 b1 3d 5c c4 c4 3c
       -0.11984948 0.16060434 0.08643717 0.024019413
000300 d7 b1 96 be dc 08 85 be 3a f6 74 be 32 4b 44 bd
       -0.29432556 -0.25983322 -0.23922053 -0.047923274
000310 82 37 ae 3e 68 ae e6 bc 7f 25 83 be 3c bb aa 3c
       0.34026724 -0.028159335 -0.25614545 0.020841233
000320 80 7e 44 bd 69 aa 47 3c 75 97 a3 3e ff 20 84 3e
       -0.047972202 0.012186625 0.3195149 0.25806424
000330 29 2d b0 be 4c d6 82 3d 3c 4d f3 bd 4f ee 7a bd
       -0.34409454 0.0638853 -0.11879966 -0.061262425
000340 5f da ae 3e bc e4 8d 39 98 52 ae 3d 32 76 07 be
       0.3415098 0.00027064036 0.08511847 -0.13228682
000350 cc 0d 48 bd 7a 64 86 3e a7 8e b8 bd 2e 92 35 3e
       -0.048841283 0.26248533 -0.09011584 0.17731544
000360 01 b0 a1 bd 5b 5a 13 be 61 f3 3a be 55 72 21 3d
       -0.07894898 -0.14389937 -0.18256904 0.039415676
000370 78 11 d8 bd 35 5e 23 bd ee 0b 75 be e1 7a d4 3e
       -0.10550207 -0.039884765 -0.23930332 0.415
000380 28 8b 7e be b8 1c d9 bc de 1a c5 3d 8b c5 c8 3e
       -0.24857771 -0.026502952 0.09624265 0.39213213
000390 aa 42 ed 3e b0 d5 d0 3e e1 19 18 3c 0d d4 07 bd
       0.46339923 0.4078803 0.009283514 -0.03316121
0003a0 4b d9 20 be ec 92 8c 3e f4 9b 60 3e e9 b7 97 3d
       -0.1570789 0.27455842 0.21934491 0.07408125
0003b0 0c 1e d1 bc ca f3 1a bc a5 fb a9 3e 33 5c 45 be
       -0.025527023 -0.009457538 0.33199802 -0.19273452
0003c0 b0 6f 10 be 3f 64 25 3e 1e c6 42 bd 00 31 6d 3d
       -0.14105105 0.16151522 -0.04755222 0.05790806
0003d0 10 54 99 3e 98 47 72 bd 0f 36 ca be 40 6c 9a bd
       0.29946947 -0.05915031 -0.39494368 -0.07540178
0003e0 d0 cc 1f 3c 1d 41 23 be 33 48 70 3e 72 2c 91 3e
       0.009753421 -0.15942807 0.23465042 0.28354222
0003f0 a1 ab bd 3d e6 50 2a be a2 7b 3d 3e 27 a5 d4 3c
       0.09261251 -0.16632423 0.18504193 0.025957657

model.1.weight f4 [256]
000000 3e fd b1 3e 5c 7b 5e 3f f3 62 73 3f 5c d4 15 3f
       0.3476352 0.8690698 0.9507286 0.5852716
000010 53 66 ea 3f 62 06 90 3f 06 85 e7 3f 59 90 ee 3f
       1.8312477 1.1251948 1.808747 1.8637801
000020 c3 ec 8d 3f 0e 34 1e 40 b3 11 21 40 46 87 b2 3f
       1.1087879 2.4719272 2.5167053 1.3947532
000030 a4 f7 84 3f 45 61 89 3f e0 e4 c9 3f 12 46 85 3f
       1.0388074 1.0732809 1.5772972 1.0412009
000040 a6 cc 36 3f bc e5 a6 3f 60 4f a8 3f 99 c4 6c 3f
       0.7140602 1.3038859 1.3149223 0.92487484
000050 c8 d8 a3 3f de 22 9f 3f 60 72 16 3d 08 24 ab 3f
       1.2800531 1.2432516 0.03673017 1.3370371
000060 9e ee ec 3f d6 29 fe 3f 5a 02 62 3f 3c 6c b3 3f
       1.851032 1.9856517 0.8828484 1.4017406
000070 6c 7c fb 3f 76 59 b0 3f 9e 11 17 40 9f be 50 3f
       1.9647346 1.3777301 2.3604503 0.81540865
000080 73 aa c0 3f 2e 0d 98 3e 55 d7 02 40 94 94 13 40
       1.5052017 0.29697555 2.0443928 2.3059435
000090 97 71 bf 3f ee c8 30 3f 14 77 85 3f 32 e9 41 3f
       1.495654 0.69056594 1.0426965 0.7574645
0000a0 87 5d a8 3f e4 7c c9 3f 42 d6 88 3f 8a a8 6a 3f
       1.3153542 1.5741239 1.0690386 0.9166342
0000b0 61 6a 91 3f a3 ca 09 40 4a 17 79 be 90 91 a0 3f
       1.1360589 2.152993 -0.2432529 1.2544422
0000c0 36 f5 14 3f 07 e9 30 3f 1c c1 90 3f df 2f b6 3f
       0.5818666 0.6910557 1.1308932 1.4233359
0000d0 4a a4 15 40 65 9a 98 3f 6a d3 0a 40 59 4f 37 3f
       2.3381524 1.1922117 2.1691537 0.7160545
0000e0 a2 43 ae 3f ac 71 90 3f f5 e6 c7 3f 70 81 40 3f
       1.361439 1.128469 1.5617357 0.75197506
0000f0 40 0b d9 3f 60 06 36 3c 26 f5 fb 3f d2 23 c0 3f
       1.6956558 0.011109918 1.9684188 1.5010931
000100 30 30 33 3f 74 6d 9c 3f 96 f4 82 3f 4e 3d 67 3f
       0.69995403 1.2220902 1.0230892 0.9032792
000110 bc 06 14 40 25 31 09 40 a8 dc 59 3f 06 e6 db 3d
       2.312911 2.1436245 0.8510232 0.10737233
000120 e5 95 c3 3f 19 2f 1b 3f 63 d0 aa 3f e1 6c 61 3f
       1.5280119 0.6061874 1.3344845 0.8805676
000130 f2 33 b5 3f 90 f5 f4 3f a0 6b 17 40 69 ed 35 3e
       1.4156477 1.913744 2.365944 0.17766346
000140 dc 7a c0 3f b5 79 18 40 a7 ee 60 3f a2 16 b8 3f
       1.5037494 2.3824284 0.87864155 1.4381907
000150 85 45 dc 3f 91 90 8c 3f 12 7f 9f 3f 16 cf 7a 3f
       1.7208716 1.0981618 1.2460654 0.9797224
000160 9f 22 be 3f 42 7f e6 3e 78 fe ae 3f 9d ab 9d 3f
       1.4854316 0.45018965 1.3671408 1.2317997
000170 f4 58 d7 3f f6 d4 ad 3f 34 b9 99 3f 94 d9 6f 3f
       1.6824021 1.3580616 1.2009645 0.9369137
000180 7e ab 0e 40 f0 f1 03 40 a1 ab ed 3f d4 21 b2 3f
       2.229217 2.0616417 1.8568002 1.3916574
000190 7e ef a3 3f 3c 85 9f 3f 58 be df 3f 1a a0 f4 3f
       1.2807462 1.2462535 1.7479963 1.9111359
0001a0 da ca 06 40 df cc aa 3f c3 14 b3 3f 8b cd f0 3e
       2.106131 1.3343772 1.3990711 0.47031817
0001b0 0d 1a 3d 3f 85 11 cb 3f 59 61 64 3f 72 a3 70 3f
       0.73867875 1.5864722 0.8921104 0.939994
0001c0 b7 8a f8 3f 13 53 36 3f 47 e1 da 3f 75 92 64 3f
       1.9417332 0.7122051 1.7099999 0.89285976
0001d0 9f 41 97 3f 90 06 a6 3f 5f 02 b8 3f 44 2e 73 3f
       1.1816901 1.2970753 1.4375724 0.9499247
0001e0 0d 0d 4b 3f 0f 31 e0 3f 13 8e 2c 3f 51 6b a7 3f
       0.7931679 1.7514971 0.6740429 1.3079625
0001f0 d5 ee fe 3d 15 c9 85 3f 91 d2 e8 3f 90 1f 8e 3f
       0.12447897 1.045199 1.818926 1.1103382
000200 2a fd ba 3f ef 54 e4 3f 9b 1d ef 3f 17 81 f9 3f
       1.460851 1.783842 1.868091 1.949252
000210 bc 20 ff 3f 66 f4 af 3f 1a fc 58 3f 24 8d 8d 3f
       1.9931865 1.374646 0.84759676 1.1058698
000220 a4 4b a8 3f 14 3c c0 3f 0b 05 9c 3e 8e 05 b4 3f
       1.3148084 1.5018334 0.30472597 1.4064195
000230 41 bf b0 3f e1 67 a0 3f da 2b bb 3f 59 01 c8 3f
       1.3808366 1.2531701 1.4622757 1.5625411
000240 a8 fc fb 3f f5 6a 8e 3e 69 7b a1 3f 8f 18 bb 3f
       1.968648 0.27815977 1.2615787 1.461687
000250 d7 e5 97 3f 05 bf 43 3f 23 8f 20 3f e4 a9 18 40
       1.1867017 0.7646335 0.6271841 2.3853693
000260 95 14 b2 3f 68 95 b1 3f 7e 80 1c 3f ba cf 11 40
       1.3912531 1.387372 0.61133564 2.2783036
000270 c2 3b a8 3f ce 9d 9c 3f 46 81 99 3f 11 26 c7 3f
       1.3143237 1.2235658 1.1992576 1.5558492
000280 37 e8 e1 3f da 88 84 3f ca dc f3 3e ba 09 9c 3f
       1.7648991 1.0354264 0.47629386 1.2190468
000290 43 f0 b1 3f 0c 1e f4 3f bc 88 b8 3f 50 08 96 3f
       1.3901447 1.907167 1.4416728 1.1721287
0002a0 c4 a7 07 40 9a cf d9 3f 21 27 64 3f 8d 34 07 40
       2.1196146 1.701648 0.89122206 2.1125824
0002b0 c0 93 c5 3f 7b b0 c8 3f 29 7c c2 3d 4b 26 bf 3f
       1.5435715 1.5678858 0.09496338 1.4933561
0002c0 19 16 8c 3f a4 c5 21 40 4a 48 e6 3f ef 57 81 3f
       1.0944244 2.527688 1.7990811 1.010496
0002d0 00 b8 ba 3f 61 cd 65 3f 65 91 eb 3f c2 c6 0f 3f
       1.4587402 0.8976651 1.8403746 0.56162655
0002e0 89 61 62 3f 25 18 df 3f dc da 5d 3f 0f 6c 8c 3f
       0.88430077 1.7429243 0.8666208 1.0970477
0002f0 65 ac 9c 3d 19 66 5e 3f 79 a3 43 3e 92 ab 86 3d
       0.07650069 0.8687454 0.19105329 0.06575693
000300 01 42 a9 3f ae 51 14 3f 0b c4 07 40 3e 44 b3 3f
       1.3223268 0.57937133 2.1213405 1.4005201
000310 e1 7c 99 3f 5e 7f ed 3e ac 70 db 3f 50 3c e0 3f
       1.1991235 0.46386236 1.714376 1.7518406
000320 2e 40 7e 3f 21 37 d2 3f 38 02 d7 3f 51 47 ca 3f
       0.9931668 1.6423074 1.6797552 1.5803014
000330 ca f3 93 3f f5 e3 01 40 00 27 d4 3f 5a a8 ab 3f
       1.1558774 2.0295384 1.6574402 1.3410752
000340 fd 25 0b 40 40 1f 8f 3f ea 2a be 3f f6 cb d5 3f
       2.1741936 1.1181412 1.4856846 1.6702869
000350 88 47 c9 3e c9 d6 17 40 31 45 40 3d bb e8 d3 3e
       0.39312387 2.3724844 0.046940986 0.41388497
000360 09 68 a4 3f 4c 7c 71 3f cb f2 84 3f 12 af a5 3f
       1.2844249 0.94330287 1.0386595 1.2944052
000370 e9 0a 1c 3f 36 a7 5f 3f 1e 72 f4 3d 37 37 e8 3f
       0.6095415 0.8736452 0.119358286 1.814185
000380 d2 e5 e7 3f 45 96 b7 3f 89 4f 03 40 8a be fd 3f
       1.811701 1.4342734 2.0517294 1.9823773
000390 b8 f2 bb 3f fa b8 d0 3f 75 ac 8e 3f 0b 24 b8 3e
       1.4683447 1.630645 1.114638 0.35965
0003a0 66 3e 02 40 dd bc d1 3f 0c 33 9e 3f 96 6b ae 3f
       2.0350585 1.6385761 1.2359328 1.3626583
0003b0 35 cb cf 3f e7 cd 7d 3f 08 8a b0 3f 24 4c 68 3f
       1.6233889 0.9914231 1.3792124 0.9074118
0003c0 25 26 bb 3f e9 1e d1 3f 23 5f b8 3f d6 61 bf 3f
       1.4621016 1.6337558 1.4404033 1.4951732
0003d0 6a 28 78 3f ee 4a 84 3f b8 5a 69 3f 89 03 9a 3e
       0.96936667 1.0335367 0.9115405 0.30080822
0003e0 3d ea 16 40 e6 aa be 3f e8 1c be 3f 32 80 a1 3f
       2.3580468 1.4895904 1.4852571 1.2617247
0003f0 de de 7a 3e 33 d0 40 3f bf 52 cd 3e cf 7a a6 3f
       0.2449908 0.75317687 0.40102193 1.3006228

model.1.bias f4 [256]
000000 a3 16 bf bc ba 79 2a bf 25 04 6a bf 62 20 52 3e
       -0.023326224 -0.6659199 -0.91412574 0.20520166
000010 55 83 54 bf d7 d1 cf be 61 97 21 bf c2 7e b0 3e
       -0.83012897 -0.40589783 -0.6312161 0.3447171
000020 91 8f 3b 3e 15 de 4c be e2 cf 86 be a2 94 f2 3e
       0.18316485 -0.20006593 -0.26330477 0.47379023
000030 79 6e c7 3e c5 87 4a be 85 ed 8f bf fe 20 a7 bd
       0.3895147 -0.19778354 -1.124436 -0.0816059
000040 9f 1b 84 bf 1c d2 e6 be cf 77 36 bf ac de 2d bf
       -1.0320929 -0.45082176 -0.71276563 -0.67917895
000050 fa d8 ad bf 31 7e 13 3f b7 e7 93 be cb 8a 39 3f
       -1.3581841 0.5761443 -0.28887722 0.72477406
000060 00 27 51 bf 2e a3 26 3c c6 33 18 3f 97 94 9b be
       -0.81700134 0.010170741 0.59454 -0.30386803
000070 51 8d 1d bd 97 cb 15 bf 17 cd 31 3f ff 9f 17 bf
       -0.038464848 -0.5851378 0.6945357 -0.5922851
000080 06 59 2d bf cd 02 94 bf 70 66 31 bf bd 26 09 be
       -0.67713964 -1.1563355 -0.6929693 -0.13393684
000090 be 1f b0 3e 81 3c ab bd 72 c7 8a bd 05 fe 12 3f
       0.34399217 -0.083611496 -0.067763224 0.57418853
0000a0 c8 e8 e6 3e a8 24 28 3e 0f fc fe 3e e2 46 0f 3e
       0.45099473 0.16420233 0.4980168 0.13991883
0000b0 4f 95 94 bf ae 7f 14 be b8 a6 02 3f 3c 14 cd be
       -1.1608065 -0.14501831 0.5103564 -0.400545
0000c0 0c 95 04 3b dc 7b 1f 3f bc 3f 75 bc 25 e7 88 3f
       0.002023044 0.6229837 -0.014968809 1.069554
0000d0 14 b8 68 3e e7 3f 9a be c0 ce 22 bf 31 ae 58 3f
       0.2272647 -0.3012688 -0.63596725 0.84640795
0000e0 a1 5b ce 3e 9f 88 bd be 84 6a a5 bf a0 9b 08 3d
       0.40304282 -0.37018296 -1.2923131 0.03335154
0000f0 e7 8c e2 bd 37 93 56 bd 56 c6 b6 be 48 9f 5c bf
       -0.11062031 -0.05238649 -0.35698193 -0.86180544
000100 b2 b1 79 3e 43 39 d9 bd f3 de b5 bf ab 7e 0c 3d
       0.24384192 -0.10606625 -1.4208664 0.034300487
000110 d4 5b 84 be d9 0d c9 3e c1 27 4c 3d 80 c2 17 bf
       -0.2585131 0.39268377 0.0498426 -0.5928116
000120 5f 7d 7c 3e 41 9c 18 3e a1 bc 33 be df f5 35 be
       0.246572 0.14903356 -0.17552425 -0.17769574
000130 64 69 31 bf 27 3f d7 3e 47 83 01 3f 2d b8 84 bf
       -0.6930144 0.4204037 0.5059094 -1.0368706
000140 06 40 90 be 30 53 39 3d f9 f4 a6 3f 5c b9 6d 3f
       -0.28173846 0.04524535 1.304351 0.9286096
000150 e3 6c dd bf 2e 13 68 3b 27 2f 42 bf 3c 66 b7 be
       -1.7298855 0.0035411823 -0.758532 -0.35820186
000160 a4 e1 30 3f 98 91 87 be 99 10 22 bf e8 9f 8a bf
       0.690943 -0.26478267 -0.63306576 -1.083005
000170 10 e4 53 bf 8a 0f d3 be c0 e1 18 bd be 0e a1 3e
       -0.8276987 -0.41222793 -0.037324667 0.3145656
000180 7b 58 7f 3d fa 28 0c bf fb 2b 58 be a0 ff b6 3e
       0.06234024 -0.54750025 -0.21110527 0.357419
000190 38 c7 bd bd 4d 7d 60 bf 2b 13 f7 be 1c 07 6f be
       -0.092665136 -0.87691194 -0.48256811 -0.23342556
0001a0 60 93 7f 3e 2e 40 c8 bf c0 16 48 3f 0a 9c c3 bd
       0.24958563 -1.5644586 0.78159714 -0.095512465
0001b0 7c e2 23 3e e9 35 02 bf 23 e6 14 bf 6d 50 50 bd
       0.16004366 -0.5086351 -0.5816366 -0.05085795
0001c0 41 e4 63 3f 12 41 03 bf b7 14 71 bf d7 60 51 be
       0.8902016 -0.51271164 -0.94172233 -0.20447098
0001d0 69 b0 65 bf d0 8a 47 3f 4c 09 70 bf 63 06 69 be
       -0.89722306 0.77946186 -0.93764186 -0.22756343
0001e0 ff 1f d6 bd bb 3b dd 3e 9e 10 cd 3e 03 d5 20 bf
       -0.104553215 0.43209633 0.4005174 -0.6282503
0001f0 60 5e 2b bf 67 28 33 be bc 3f bc be e1 c0 1d bd
       -0.6694088 -0.17495881 -0.36767375 -0.03851402
000200 9a 5f 1e bf b7 ea bc bc b4 8c 72 bf ec 02 20 bf
       -0.61864626 -0.02306114 -0.94745946 -0.6250446
000210 39 0c 40 bf 61 ee 7e bf bb 92 97 bd b9 19 58 3e
       -0.7501865 -0.9958249 -0.074010335 0.21103562
000220 42 79 a6 bf f7 19 91 3d d9 a8 af bf 47 cc 63 bf
       -1.3005755 0.070850305 -1.3723403 -0.8898358
000230 61 15 46 3e ba 1e 30 3e 3a 52 93 bf 93 13 d7 be
       0.19344093 0.17199221 -1.1509469 -0.4200712
000240 b9 62 26 bf c4 69 b2 3f 2a 86 91 be c5 ce e2 be
       -0.6499439 1.3938527 -0.28422672 -0.44298378
000250 da 20 a7 3e 08 8a 23 be 96 84 44 3f 8b af ec be
       0.3264225 -0.15970623 0.7676481 -0.4622768
000260 15 27 36 3f 28 32 a4 3e 87 ab 87 3f 71 34 95 bd
       0.71153384 0.32069516 1.0599221 -0.07285393
000270 12 6b b0 bc 45 a8 29 bf 6b 8a 72 bf 5d eb 9e 3f
       -0.02153543 -0.66272384 -0.9474246 1.2415577
000280 ae ec 88 3f f0 fc 67 bf 49 71 7b bf 7e 27 7f be
       1.0697229 -0.90620327 -0.98219734 -0.24917409
000290 ab 53 43 be da 48 55 bf 4c 15 55 3f b3 98 85 bf
       -0.19074886 -0.8331429 0.8323562 -1.0437225
0002a0 ce fe 91 3e 79 6e 8f be c5 12 80 be 23 43 e8 be
       0.28514713 -0.2801397 -0.2501432 -0.4536372
0002b0 41 a6 f1 be ae b8 13 3f 3b a2 17 bf 4f b2 dc bc
       -0.47197154 0.57703674 -0.5923192 -0.026940493
0002c0 a4 5c 41 be aa b0 a7 bf 34 ad 17 be a0 aa af bf
       -0.18882996 -1.3100789 -0.14812165 -1.3723946
0002d0 51 c3 fd be 88 b3 38 bf 33 2f 75 bd ba c5 cc bd
       -0.49563077 -0.7214894 -0.059859466 -0.09998651
0002e0 51 1e 8c 3e 52 1b e2 3d a2 b3 34 3e 60 53 2c 3f
       0.2736688 0.11040367 0.1764665 0.6731472
0002f0 9d cb dd be 31 9d 8f bf 60 77 7d bf 6f d9 cd be
       -0.43319407 -1.1219846 -0.99010277 -0.4020495
000300 db 2e a5 3f 05 a4 5c bf 42 25 3e be a0 9e ca 3e
       1.2904924 -0.86187774 -0.185689 0.39574146
000310 00 e2 20 3f 48 e7 08 3d 12 7a 20 bf f7 e9 2b 3f
       0.6284485 0.033423692 -0.62686265 0.6715388
000320 80 14 11 3f 9f e0 0a be 82 1a b7 3e c9 02 33 bf
       0.56671906 -0.13562249 0.3576241 -0.69926125
000330 17 dc 86 3f b7 72 1f 3f 2b 62 c8 3d 38 cf 23 be
       1.0535916 0.62284416 0.09784349 -0.15997016
000340 ce b1 53 3e 95 ac 40 be d9 32 07 bf d1 44 7c bf
       0.20673296 -0.18815835 -0.5281196 -0.98542506
000350 eb ab cf bd 55 1f 3e 3e 3b 3b af be 0a e9 71 3c
       -0.101402126 0.1856664 -0.34224877 0.0147650335
000360 6a 46 ab bf 07 52 62 be e2 ac 73 bf 42 e6 10 be
       -1.3380864 -0.22101603 -0.95185673 -0.14150336
000370 69 43 91 3e da 38 a9 be 49 59 03 bf 88 76 45 bf
       0.28371742 -0.33051187 -0.51308113 -0.7713399
000380 8a 76 0f bf 53 a8 62 bf e9 2e e1 bd ab 28 b3 be
       -0.5604025 -0.8853809 -0.109952755 -0.34991965
000390 76 e1 9a be 19 2e 89 be ac 94 7f be ec 42 c4 3e
       -0.30250138 -0.26792982 -0.24959058 0.38332307
0003a0 e7 5e 04 3f de c2 30 bd 00 c5 5d bf f9 ed 5a bf
       0.5170731 -0.04315459 -0.86628723 -0.8551937
0003b0 ce bf c0 be 9d c5 09 3d 3c f4 ec be e4 da 13 3f
       -0.37646335 0.033635724 -0.46280086 0.57755876
0003c0 d4 b8 83 bf 1d 04 f5 bd 47 e3 e3 be 6f 67 e9 3a
       -1.029078 -0.11963675 -0.44509336 0.0017807315
0003d0 50 c5 a3 bd 5a 04 97 bd 18 b1 15 bf 97 e9 af bf
       -0.07996619 -0.07373877 -0.5847335 -1.3743161
0003e0 f1 01 8c be 65 36 4c bf a7 ba b0 3d d6 8c 9e bf
       -0.2734523 -0.797705 0.08629351 -1.238673
0003f0 4d 86 0e bc f4 cb d6 be b8 88 27 3f 43 91 4b bf
       -0.008699012 -0.4195248 0.6544299 -0.79518527

model.1.running_mean f4 [256]
000000 9d 45 3d 3d 7e e4 20 c0 dd 02 86 bf 1d bf 91 be
       0.046208967 -2.513946 -1.0469624 -0.2846612
000010 81 a1 db be 88 85 6c bf 9b 16 b8 3f 64 e8 9b 3f
       -0.42896655 -0.9239125 1.4381899 1.2180295
000020 fa cb 75 bf b7 83 a1 3f 02 4d 59 be 56 81 c3 be
       -0.9601437 1.2618321 -0.21220782 -0.38184613
000030 44 87 8c 3e eb fe 2b bf dc 6f 87 bf 8f da 38 40
       0.2744695 -0.6718585 -1.0581012 2.8883398
000040 b7 c4 1b bc d9 ec 87 be e7 6d 20 bf 67 13 88 3e
       -0.00950735 -0.26547888 -0.626677 0.26577303
000050 68 25 81 3f f9 86 42 3f 6f c6 46 3f 18 70 92 3e
       1.008954 0.759872 0.77646536 0.28601146
000060 05 a8 95 3e 16 1a 4b bf 0b ef 04 40 99 8f 1e bd
       0.2922975 -0.7933668 2.07709 -0.038711164
000070 b4 6b b2 bf 53 04 17 bf 33 0d 80 bf b4 a1 06 bf
       -1.3939118 -0.58990973 -1.0004028 -0.5259049
000080 79 c6 9e be c0 5c 81 3f 54 1b 84 be 9c 1a bf 3e
       -0.31010798 1.010643 -0.258021 0.3732499
000090 85 9a 3e bf dd a1 4b 3f 79 0d 39 bf 5e af 87 3f
       -0.7445453 0.7954386 -0.7228618 1.0600393
0000a0 38 23 f4 3f d3 ef c7 3f 17 cd 9c bf c2 aa 64 be
       1.9073248 1.5620064 -1.2250088 -0.22330764
0000b0 58 42 ed bf 52 37 db bf 3b bf a5 bf f1 2e 8b 3f
       -1.8535872 -1.7126257 -1.2948984 1.08737
0000c0 09 73 ad bf 56 3c 5e 3f 85 a4 29 3e 84 82 3d bf
       -1.3550731 0.86810815 0.16566665 -0.74027276
0000d0 ad 76 94 be 19 ba 81 bf 67 f9 1a 3f df 1a a9 3f
       -0.28996792 -1.0134917 0.6053681 1.3211325
0000e0 83 8d 1b bd 1a 45 a0 bf 58 a0 d1 bd d2 6e d3 bf
       -0.037976753 -1.2521088 -0.10235661 -1.6518195
0000f0 30 83 41 3f 8b c5 91 3f d3 7d 2e bf b8 00 84 bf
       0.755908 1.138841 -0.6816074 -1.0312719
000100 9c 76 b5 bf e5 e9 be bf b3 fd 50 bf 4d 7b 3f bf
       -1.4176822 -1.4915129 -0.81637114 -0.7479752
000110 f3 8b 55 bf 9b 39 5a bf 2c b7 4f be 47 f4 44 3f
       -0.8341667 -0.8524415 -0.20284718 0.7693524
000120 b7 15 07 3e e3 90 a0 3f e3 e2 8d 3f 09 a4 b7 bf
       0.13191877 1.2544216 1.1084865 -1.4346935
000130 c2 91 50 bf 5c 07 d4 3f 19 97 c3 be 88 3f 13 3f
       -0.8147241 1.6564746 -0.38201216 0.57518816
000140 de 44 69 be 23 c0 2e bf c5 02 b4 3e c3 a0 6a 3e
       -0.22780177 -0.6826193 0.35158363 0.22912888
000150 81 2e 0e bf fc 23 88 3e c7 52 a2 3c 89 1d 07 c0
       -0.5553971 0.26589954 0.019814862 -2.1111777
000160 43 ee 25 3f a4 ec a8 bf 99 42 93 bf fe 8b 7e 3f
       0.64816684 -1.3197217 -1.1504699 0.9943236
000170 57 c8 87 bf 85 0a 12 c0 ca da b8 3f fb 2f 94 3f
       -1.0608014 -2.281892 1.4441769 1.1577142
000180 31 10 02 40 f4 34 ab 3d 85 66 fc bf 69 55 3d be
       2.0322382 0.083597094 -1.9718786 -0.18489613
000190 3d d7 a8 bf 3f 06 27 bf 81 27 b2 3b ff e6 5e bf
       -1.3190686 -0.65243906 0.005436838 -0.8707122
0001a0 67 5b 57 3e 4c cf d7 bf 01 7c c1 3f 37 da 05 c0
       0.21030961 -1.6860137 1.5115968 -2.0914438
0001b0 99 4e 90 bd 59 b7 92 3d e9 65 0b bf cb 34 aa be
       -0.07046241 0.07163877 -0.5445238 -0.33243403
0001c0 bb e8 f3 3f fb 14 34 bf 3f 21 56 3e 34 01 07 bf
       1.9055399 -0.70344514 0.2091112 -0.5273621
0001d0 a8 16 cc 3e e1 88 3d bf 3f 27 27 bf 45 9c a3 bf
       0.39861035 -0.74036986 -0.6529426 -1.2782065
0001e0 89 af 95 bf c1 91 cd 3f b9 2a 9f 3f 91 4b f5 be
       -1.1694194 1.6060106 1.2434913 -0.47909215
0001f0 5e 0b 4f bf 42 2b b9 bf e8 b5 46 bd 86 80 bb bf
       -0.8087672 -1.4466326 -0.048513323 -1.4648597
000200 b1 b8 11 be 64 a8 7c be 3e 84 39 be c7 54 14 be
       -0.1423061 -0.24673611 -0.18116853 -0.14485465
000210 b0 36 11 be f8 03 9a bf 5a b3 8f be 5d ed 3d 3f
       -0.14181018 -1.2032461 -0.28066522 0.7419031
000220 50 45 a9 be a0 ac d8 3e 78 32 01 40 33 93 ae bf
       -0.33060694 0.42319202 2.0187054 -1.3638672
000230 52 a3 68 be e6 19 cd 3e d7 88 b9 bd be b8 19 bd
       -0.22718552 0.4005882 -0.09059303 -0.0375297
000240 e9 1e 53 3f 5a 9e 4b bf db 0d 51 3f 33 3d 19 bf
       0.8246904 -0.795385 0.81661767 -0.5985901
000250 97 12 b8 3f c0 10 35 bf 91 3d 8d 3e 2d 3d e4 be
       1.4380673 -0.70728683 0.27586034 -0.44577923
000260 44 10 84 3e 3b a2 2b 40 5c 0b c2 3e a9 83 b9 bf
       0.2579366 2.6817768 0.37899292 -1.4493304
000270 17 57 89 3e 85 78 ff bf 54 c7 dd bf 3c c6 38 bf
       0.26824257 -1.9958655 -1.7326455 -0.7217748
000280 66 a0 b7 3e 8b 17 e4 3a e4 78 cf bf 31 46 f4 bd
       0.35864562 0.0017402036 -1.6208768 -0.119274504
000290 77 b1 d6 bf 9d 11 ef 3e bf 15 99 bf a5 3a 16 c0
       -1.6772908 0.46693125 -1.1959761 -2.3473294
0002a0 29 22 b5 3f 3c 39 fd bf 20 c2 d4 bf c0 e5 81 3f
       1.415105 -1.9783092 -1.6621742 1.0148239
0002b0 82 c2 7d 3e 7c 5f 56 bf 09 85 c3 be 9c 1c 7a 3f
       0.2478123 -0.8373945 -0.38187435 0.97699904
0002c0 8d f9 72 bf 40 fd 5a bf 63 55 ab be 69 5a 49 bf
       -0.94912034 -0.8554268 -0.33463582 -0.7865358
0002d0 52 64 ca 3e 3a 48 cb bf 66 a7 d4 3f fc 64 2d c0
       0.39529663 -1.5881417 1.6613586 -2.7092886
0002e0 36 97 bb 3e 50 7e d1 3f 27 95 a7 3d bb 7f b0 be
       0.36638802 1.6366673 0.081827454 -0.3447245
0002f0 0c af 81 bf 8c fe 5d bf f1 53 fe be 14 1c 05 40
       -1.0131545 -0.8671653 -0.49673417 2.0798388
000300 5c d1 4d 3f ea 40 0a c0 09 ec c4 3e 05 1c e9 3f
       0.8039758 -2.160212 0.3846133 1.8211676
000310 f6 fd 00 3f af 70 1e bf 1d 10 77 bd b8 89 c5 3f
       0.50387514 -0.6189069 -0.0603181 1.5432653
000320 f5 d1 a4 3f c3 bf a1 bf ef 70 a2 3f 06 bc c9 bf
       1.2876574 -1.2636646 1.2690715 -1.5760505
000330 9d 7f 7a 3e b8 a6 8a 3f 9f b7 74 3f 81 0c 42 3e
       0.24462743 1.0832129 0.95592684 0.18950082
000340 8b e1 12 be 4a a8 61 3d 39 85 f8 be ea 2f 06 bf
       -0.1434385 0.055092134 -0.4853914 -0.5241686
000350 77 2e 9c bf 2c 55 c5 3f c6 56 1d 3e ea 8c 53 bf
       -1.220168 1.5416617 0.15365133 -0.8263689
000360 20 50 ff be 65 1f 1f bf 21 34 4e bf 45 70 3e 3e
       -0.49865818 -0.6215728 -0.8054829 0.18597515
000370 c7 25 d4 bc fa 83 3b 3f ae c6 a6 bf 9c 11 aa 3f
       -0.02589692 0.73248255 -1.3029382 1.3286624
000380 a8 c3 8e bf 39 19 47 bf 30 c3 c2 3e f3 02 6b 3f
       -1.115346 -0.7777286 0.3803954 0.91801375
000390 fb bf 87 bf 78 f4 12 bf 47 eb 08 bf 51 39 16 be
       -1.0605463 -0.5740428 -0.53484005 -0.14670302
0003a0 4b 90 88 be ea bc cb 3d 29 ae a9 be 27 7c ac bf
       -0.26672587 0.09948142 -0.33140686 -1.3475388
0003b0 fb 2d 77 bf ea b9 35 3d 38 bc 38 bf 03 bc db be
       -0.96554536 0.044366755 -0.721622 -0.4291688
0003c0 9c 4b 96 bf 38 81 f7 3e 8e dd 2c bf 04 57 a6 3f
       -1.1741824 0.48340774 -0.67525566 1.2995305
0003d0 2d 76 26 40 53 fc 43 40 b7 67 0c 3f 90 4d 12 c0
       2.6009629 3.0622756 0.54845756 -2.285984
0003e0 95 b1 0c bf b0 5c a5 bf 21 8c c0 3f fa a2 1f 3d
       -0.5495847 -1.2918911 1.5042764 0.038973786
0003f0 7e f8 2a bf f9 c4 04 c0 2c dd 01 40 0a 17 96 be
       -0.6678542 -2.0745223 2.0291243 -0.29314452

model.1.running_var f4 [256]
000000 0d 79 73 3f 82 b1 2d 40 e4 5e 9b 3f 19 25 66 3f
       0.95106584 2.7139592 1.2138333 0.89900357
000010 d6 37 3d 3f 63 70 fc 3f fc ab 93 3f f9 dc 42 3f
       0.73913324 1.9721798 1.153686 0.7611843
000020 bf de 06 40 40 b9 a9 3f 88 b0 1d 3f b2 2d 91 3f
       2.1073453 1.3259659 0.6159749 1.134207
000030 ab e1 47 3f 07 a4 9d 3f 3e 53 67 3f cb 87 b3 40
       0.78078717 1.2315682 0.9036139 5.6103263
000040 5e 57 84 3f 26 1b 48 3f c9 44 ad 3f 38 13 96 3f
       1.0339162 0.78166425 1.3536617 1.1724615
000050 99 fb 9f 3f 7f c0 c6 3f 0e b9 82 3f 00 9a 81 3f
       1.2498657 1.5527495 1.0212724 1.0125122
000060 c3 1e 89 3f ba 9b 03 40 e0 b9 03 40 bd be 88 3f
       1.0712513 2.0563798 2.05822 1.0683209
000070 a5 91 c0 3f 50 ce 14 40 26 be ca 3f 80 0d 79 3f
       1.5044447 2.3250923 1.5839279 0.97286224
000080 4f 83 2b 3f 8b c2 11 3f ec 28 63 3f d3 56 0e 3f
       0.66997236 0.56937474 0.88734317 0.55601233
000090 5f 62 91 3f 2f a9 1d 40 39 7e 53 3f 12 aa a5 3f
       1.1358145 2.4634511 0.82614475 1.2942526
0000a0 5e 4b e0 3f ce 44 08 40 b7 70 09 40 b6 28 32 3f
       1.7523 2.1291995 2.1475046 0.6959337
0000b0 8e 1b d8 3f 86 31 c5 3f 75 f7 88 3f 9f 17 94 3f
       1.6883409 1.5405738 1.0700518 1.1569709
0000c0 0e e4 08 40 10 69 9c 3f 35 59 9a 3f e6 22 e7 3f
       2.1389194 1.2219563 1.2058474 1.8057525
0000d0 0f b1 c3 3e db d0 98 3f 9d 34 6e 3f 68 4e b2 3f
       0.38221022 1.1938738 0.9304903 1.3930178
0000e0 7f 43 ce 3f 7d 87 5f 3f 87 00 c1 3f 42 8a 19 40
       1.6114348 0.87316114 1.5078286 2.3990636
0000f0 cb 43 b8 3f 9b be fc 3f 09 e5 48 3f d1 e2 34 40
       1.4395689 1.9745668 0.7847448 2.8263438
000100 49 d5 cd 3f e0 af fa 3f 42 40 df 3f b1 f1 83 3f
       1.6080714 1.9584923 1.7441485 1.0308133
000110 98 d6 b9 3e ff 8c bc 3f 1a d3 aa 3f e3 f3 dd 3f
       0.36296535 1.4730529 1.3345673 1.7340053
000120 5f af b2 3f ef 47 e7 3f 91 fa 9a 3f d5 54 8a 3f
       1.3959769 1.8068827 1.2107717 1.0807139
000130 a7 fb 71 3f de 13 35 40 aa 7e 45 3f 60 e3 71 3f
       0.94524616 2.8293376 0.771464 0.9448757
000140 39 e1 27 3f 4d 30 64 3f f2 76 da 3f 62 c2 9d 3f
       0.6557804 0.891362 1.7067549 1.2324946
000150 b0 4a 9c 3f 22 03 e9 3f 8f b9 91 3f fc 8f 5a 40
       1.2210293 1.8204081 1.1384753 3.415038
000160 43 54 9e 3f c7 3b f2 3f 1d 81 a3 3f 85 86 e7 3f
       1.2369465 1.8924493 1.2773777 1.8087927
000170 5f e3 c3 3f 68 ed 61 40 78 c3 07 40 84 b5 82 3f
       1.5303763 3.5301151 2.1213055 1.0211644
000180 5d b0 9e 3f da 8c 87 3f bc 40 10 40 ca 9e 81 3f
       1.2397572 1.058986 2.253951 1.0126584
000190 fe e7 2b 40 75 6d 07 40 7e 36 5d 3f ae be b8 3f
       2.6860347 2.1160557 0.86411273 1.4433191
0001a0 7a e7 8a 3e fb 34 61 3f 3a a4 84 3f 52 d9 62 40
       0.27129728 0.87971467 1.0362618 3.5445142
0001b0 c0 e6 a9 3f e4 34 3b 3f 23 a7 6b 3f 83 77 b2 3f
       1.3273544 0.7312758 0.92051905 1.3942722
0001c0 10 49 3c 40 28 bf e4 3f a4 4a 0b 40 db de 9b 3f
       2.9419594 1.7870836 2.1764307 1.2177385
0001d0 34 dc 3e 3f 03 78 be 3f b4 3a 97 3f a3 59 c2 3f
       0.74554753 1.4880375 1.181479 1.5183605
0001e0 52 db 15 40 71 30 a2 3f 35 39 f2 3f df 90 da 3f
       2.3415112 1.2671033 1.8923708 1.7075461
0001f0 9a 65 c0 3f 86 70 34 40 b7 58 dd 3e 04 41 d1 3f
       1.5031006 2.819368 0.43231747 1.6347966
000200 e7 7a 92 3f b3 b6 7e 3f 62 1c 19 3f 26 46 ac 3f
       1.1443757 0.99497527 0.59808934 1.3458908
000210 20 87 7f 3f 65 78 03 40 ee 30 77 3f 6b f6 c3 3f
       0.9981556 2.0542233 0.96559036 1.5309576
000220 37 5f a7 3f 60 2c ca 3f 1c 40 06 40 36 39 35 40
       1.3075932 1.5794792 2.097663 2.8316169
000230 84 1b 33 3f 2e 56 9d 3f 36 48 e5 3f 84 44 89 3f
       0.6996386 1.2291925 1.7912662 1.0724034
000240 07 ba 18 3f 34 62 35 3f 9f 4d 69 3f 3e 83 7d 3f
       0.59658855 0.7085297 0.91134065 0.99028385
000250 2e 3a 12 40 4c 14 93 3f 1b c3 80 3f 17 3d c4 3f
       2.284801 1.1490569 1.0059541 1.5331143
000260 0c e9 77 40 79 d4 52 40 89 ce 78 3f 4c 3c 8e 3f
       3.873599 3.2942183 0.9719015 1.1112151
000270 06 90 ac 3f 3e 8f 2e 40 1c 15 ea 3f e3 ff b1 3f
       1.3481452 2.7274928 1.8287692 1.3906215
000280 81 c0 f6 3e d6 15 8a 3f d6 03 df 3f e6 22 3c 3f
       0.48193744 1.0787914 1.7423046 0.7349075
000290 94 2a c8 3f 1b a0 af 3f 55 a7 00 40 0e b6 8f 40
       1.5637994 1.3720735 2.0102131 4.4909735
0002a0 8c a5 d5 3f 5d 70 d5 3f 20 3a 13 40 c2 57 93 3f
       1.6691146 1.6674916 2.3004227 1.1511157
0002b0 25 7f d6 3f 6b 89 67 3f 78 b7 1e 3f 5e 15 a3 3f
       1.6757551 0.9044406 0.619987 1.2740896
0002c0 14 eb cf 3f a9 75 96 3f 28 ee 93 3f a6 33 8c 3f
       1.6243615 1.1754657 1.1557055 1.0953262
0002d0 dc e0 09 3f e6 ed ed 3f 48 e3 cd 3f a8 29 bb 40
       0.53858733 1.8588226 1.6084986 5.848835
0002e0 c1 12 99 3f f5 71 f2 3f 23 0d 98 3f 61 73 07 3f
       1.1958848 1.8941027 1.1879009 0.5291043
0002f0 2f 9a 49 3f a9 66 9d 3f 38 ad 2b 3f 27 4b f4 3f
       0.7875089 1.2296954 0.67061186 1.9085435
000300 80 99 24 40 96 5b d8 3f 2a 2d c6 3e 2f 25 89 3f
       2.571869 1.690295 0.38706332 1.0714473
000310 ee 15 0a 40 46 bf a4 3f aa ee 2c 40 10 c2 fe 3f
       2.1575885 1.2870872 2.702067 1.9902973
000320 e4 1b 02 40 e6 e9 ac 3f 35 93 88 3f 54 6a 1b 40
       2.0329523 1.350888 1.0669924 2.4283648
000330 33 2c 87 3f 2a ed 01 40 30 68 97 3f c4 b6 ad 3f
       1.0560364 2.0301003 1.182867 1.3571401
000340 80 85 02 3f 29 a7 8f 3f e2 07 b6 3f 3d 4d 52 3f
       0.50984955 1.1222888 1.4221156 0.82149106
000350 2c 64 4a 3f 58 03 4b 40 45 b6 59 3f 09 e6 e3 3f
       0.790591 3.172079 0.85043746 1.7804576
000360 ce f4 ce 3f 6d b2 82 3f 70 10 c7 3f 31 e2 c6 3f
       1.6168458 1.0210701 1.5551891 1.5537778
000370 d8 2e 92 3f 2b 30 1a 40 ef c7 86 3f 0e fb 8c 3f
       1.1420546 2.40919 1.0529765 1.1014116
000380 0d da 74 3f b3 38 3c 3f 9b d2 28 40 5f de e4 3f
       0.9564522 0.73524016 2.6378543 1.7880362
000390 0e ea 15 40 e4 d2 84 3f 03 b4 96 3f 2c 50 63 3f
       2.3424106 1.0376859 1.1773685 0.8879421
0003a0 01 44 03 40 34 dd 9b 3f 50 3c 45 3f 86 3d e3 3f
       2.0510256 1.2176881 0.77045155 1.775315
0003b0 4c c3 17 40 01 30 1f 3f 8a 9b 38 40 a9 17 ea 3f
       2.371295 0.62182623 2.8844934 1.828847
0003c0 28 9b 8b 3f 12 7e a0 3f 31 91 36 3f 65 a5 0b 40
       1.0906725 1.2538474 0.71315295 2.18197
0003d0 e7 ae 9e 40 d7 c4 f8 40 72 d8 e4 3f 0a e4 32 40
       4.9588504 7.7740283 1.7878554 2.7951684
0003e0 95 c7 1e 3f 0e 2c 77 3f 06 8d df 3f 60 59 06 3f
       0.6202329 0.965516 1.7464912 0.52480125
0003f0 b1 6a cf 3f e1 14 71 40 f0 3a 8b 40 bb 2e 3b 3f
       1.6204435 3.7668993 4.3509445 0.7311818

model.3.weight f4 [256, 256]
000000 63 d3 f2 be 34 41 ae be a0 25 14 be 2f e6 7d 3e
       -0.474269 -0.3403412 -0.14467478 0.2479484
000010 b9 27 8c bf a8 c7 69 bf 85 94 96 bf 33 78 9f 3e
       -1.0949622 -0.91320276 -1.1764075 0.31146392
000020 a1 d7 c6 be d8 2a 8b bc bc d3 ae bf da a9 12 3f
       -0.38836387 -0.016988203 -1.3658366 0.5729042
000030 59 d1 6c 3f 6f 79 5c 3d 15 f1 cb 3c ae 53 59 3e
       0.9250694 0.053826746 0.02489523 0.21223328
000040 12 7a be be e7 4c f8 be 60 d4 49 bf 83 d6 78 3f
       -0.37202507 -0.48496172 -0.78839684 0.9720232
000050 6b 1c 37 3f 25 b5 e7 3e 13 95 39 3f 8a 26 22 3f
       0.7152774 0.4525539 0.72493094 0.63340056
000060 6c 7f 9c be ec fe 72 bf 64 72 e9 3e 10 3a 49 be
       -0.30565965 -0.9492023 0.45595086 -0.19651055
000070 dd 8f 2a 3e ad 6a 08 3e f7 27 c7 3e 5f 08 40 3f
       0.16656442 0.13321944 0.38897678 0.75012773
000080 6b a6 02 bf 06 52 f0 be cc e1 09 3e 01 22 8b 3e
       -0.51035184 -0.4693758 0.13465041 0.2717438
000090 46 b1 c2 3e ba ba 88 3e 14 81 85 3d b7 15 84 be
       0.38025874 0.2670496 0.0651876 -0.25797817
0000a0 44 ba 2c bf 0b 46 a6 3f e5 18 d1 be a1 93 3d 3f
       -0.6747172 1.2990125 -0.40839306 0.7405339
0000b0 dc 28 a3 be 9c da 95 be 64 25 6e bf 34 c9 ed 3e
       -0.3186711 -0.29268348 -0.93025804 0.46442568
0000c0 1e cc aa bd c0 a6 cb be 6b 88 62 3e 57 13 f4 be
       -0.083397135 -0.39775658 0.22122352 -0.47671005
0000d0 f1 16 21 3e 89 c6 47 bf af 7b 11 be 31 f5 af bd
       0.15731408 -0.78037316 -0.14207338 -0.085916884
0000e0 ec 97 50 bf 29 9b 7b 3d f8 c9 7b bf ee 00 31 3f
       -0.81481814 0.06142727 -0.98355055 0.69142044
0000f0 25 94 49 3f 15 a8 2c 3e 1b bb d3 3e a4 39 05 bf
       0.78741676 0.16860993 0.41353688 -0.5204108
000100 9c e0 e2 3e e9 67 64 bf 99 c6 f9 be 84 fd 37 be
       0.44311988 -0.89221054 -0.4878433 -0.17967802
000110 23 b3 5f bf 94 8c e1 3e e9 06 a3 bf 03 37 1e bf
       -0.87382716 0.44052565 -1.2736484 -0.6180269
000120 a6 4b e0 bd ce 03 17 bf fc 39 56 3e ac a1 32 3f
       -0.10951929 -0.5899018 0.20920557 0.6977794
000130 0e 06 c7 be 6e 73 25 3f b7 e0 44 be ea 4a c7 3d
       -0.38871807 0.64629257 -0.19226347 0.097310856
000140 1a 2a 71 bf 85 c9 c0 3e d1 44 9f 3e 72 11 b7 bd
       -0.94204867 0.37653747 0.3110719 -0.08938874
000150 b1 42 41 bf f0 c1 65 3f 8e b3 41 3f 0e 4c 59 3d
       -0.7549239 0.8974905 0.75664604 0.053051047
000160 4f 4f 35 be 81 1d a1 3d 7d d6 44 3d 06 44 15 3f
       -0.17706035 0.078669555 0.048056114 0.5830692
000170 93 b8 4a 3f 49 d6 a7 be b7 5c aa be be c4 2c bf
       0.7918789 -0.32780674 -0.3327386 -0.67487705
000180 90 57 2c bf 4e 22 2e bf ab 34 16 bf 74 17 21 3e
       -0.6732111 -0.68021095 -0.58674115 0.15731603
000190 8b d1 39 be bb 97 95 be 7a 53 45 bf e3 8f 46 3c
       -0.1814634 -0.29217324 -0.770805 0.012119266
0001a0 2a ab aa 3e 48 0f 85 bf 68 46 1d be ce 1c 25 bf
       0.33333713 -1.0395288 -0.15358889 -0.6449708
0001b0 c5 9f e0 be 77 b5 3d bf 43 a8 32 3e 68 ef b1 bf
       -0.43871894 -0.7410502 0.17446999 -1.3901186
0001c0 9d 04 86 3d 37 61 df bf bb 92 38 3e fa 5c ac bd
       0.06543849 -1.7451543 0.18024723 -0.08416171
0001d0 6e a2 4c bf b7 4d 37 bf 61 6c ea be 07 c4 d7 be
       -0.7993535 -0.7160296 -0.45785812 -0.42141744
0001e0 8c ee 9e be b8 db 66 3f e7 31 c3 be 8f bd bb be
       -0.31041372 0.90179014 -0.3812401 -0.3666806
0001f0 7a 64 db be 2c dd 54 bf 9a 8f 04 bf e9 bb ec bd
       -0.42850095 -0.8314998 -0.5178162 -0.115592785
000200 75 ff 68 bf 9f 8f 0f 3f b1 7a d1 be bc eb 42 3f
       -0.91014796 0.56078523 -0.4091392 0.7614095
000210 ff ad 81 bf 1a d9 12 bf 7b 53 4c be 67 5c 08 3f
       -1.0131224 -0.5736252 -0.1995372 0.53265995
000220 b0 5e 78 3e 9b 99 49 bf 19 06 42 3e 5a d4 40 bf
       0.2425487 -0.7875001 0.18947639 -0.7532402
000230 ac a4 6a 3e ae 4d ac be f6 7f a0 bf f4 20 0e c0
       0.2291438 -0.33653015 -1.253905 -2.2207613
000240 5a 29 5b bf 6e 4c 98 be ab 6b e9 be bf eb 36 bd
       -0.8560997 -0.2974581 -0.45589957 -0.04465842
000250 8c f3 46 be f4 f0 01 3f 2f 51 4a 3e 5f 52 47 3f
       -0.19428843 0.5075829 0.19757532 0.77860063
000260 eb 6e 71 3f d5 72 00 bf c4 01 2d 3f 33 4a 68 3f
       0.9430987 -0.5017522 0.6758082 0.9073822
000270 9e f6 43 bf 9f 7d 4e bf e2 4e 75 3d e4 b4 2f 3f
       -0.7654818 -0.8066043 0.05988968 0.6863539
000280 88 2e d5 3e 1a 50 8e bf ad b3 e9 3f eb 9b 53 bf
       0.41637063 -1.1118195 1.8257958 -0.82659787
000290 d2 60 8f 3e 3d 72 b6 bf d4 67 20 be 08 2d 4f bf
       0.28003556 -1.4253613 -0.15664607 -0.8092809
0002a0 d4 15 07 3f 8f ba 4c 3e f6 df f0 3d 26 86 7d bf
       0.5276768 0.19993041 0.11761467 -0.9903282
0002b0 93 4a 06 3d cd 0f c3 3e 4d ca 9f 3e 08 86 8a bf
       0.032785963 0.38097993 0.3120903 -1.0822153
0002c0 68 15 bc be 9c 89 99 bf 94 3c c8 be cd 51 ff 3c
       -0.36735082 -1.199512 -0.39108717 0.031166935
0002d0 06 b1 e8 bf 1c 10 51 bf c0 da 37 be ae 3b 26 be
       -1.8179023 -0.81665206 -0.1795454 -0.16233703
0002e0 e3 57 a3 bf e2 64 f9 bc ed df 72 bf 89 78 08 be
       -1.2761196 -0.030443612 -0.94872934 -0.1332723
0002f0 ec ec ee be 7e ba 11 c0 f7 39 ea 3e 4a bd 99 be
       -0.46665132 -2.2770076 0.4574735 -0.3002723
000300 9a 44 67 3f 44 a4 3d 3e a1 b2 28 3e 1a 22 47 bf
       0.9033905 0.18519694 0.16474392 -0.7778641
000310 35 99 0a 3f 20 76 5c 3d 29 e0 cc 3e 82 9f f7 bc
       0.54140025 0.05382359 0.4001477 -0.030227426
000320 cb 16 8f 3f 60 ed 4c 3f e3 0d 14 bf 9f c0 c1 be
       1.1178831 0.80049706 -0.5783369 -0.3784227
000330 a5 18 5f 3e d3 2f 00 3f 70 4a a7 be d0 53 ae be
       0.21786745 0.50072974 -0.3267398 -0.3404832
000340 f8 71 6b be 26 bc db bd f4 7d d0 bf e0 7d c2 be
       -0.22992694 -0.10729246 -1.6288438 -0.3798666
000350 16 f6 40 3f e3 a1 51 3e 48 44 90 be d5 dd 82 bf
       0.753755 0.20471911 -0.28177094 -1.0223948
000360 ad 82 a1 3e 0e 98 85 bd 09 7a 0e bf f7 b4 e7 3d
       0.3154501 -0.06523143 -0.5565496 0.11313813
000370 63 89 a0 3e e0 7a 56 3f 4c 68 fe 3e be e8 ba be
       0.31354818 0.8378124 0.49688947 -0.36505693
000380 fe c5 0b 3f 85 ad 26 3e 6a 0b db bf 77 ce 58 3f
       0.5459899 0.1627713 -1.7112858 0.8469004
000390 c1 9d 9b 3e 5f d6 4b bf 34 1f d4 3e 58 f3 17 3f
       0.30393794 -0.7962398 0.41430056 0.5935569
0003a0 3d bb d9 bf 8c dd 1d bf 50 4e 57 bf 1b 32 09 bf
       -1.7010266 -0.6166618 -0.8410387 -0.5359208
0003b0 f4 df bc bf fb e2 17 3f 5c b6 93 be 16 1d 70 be
       -1.4755845 0.5933072 -0.28850067 -0.23448595
0003c0 e7 da 25 bf c3 8d cd 3e a3 33 bb be c1 c7 0a 3f
       -0.64787143 0.40147218 -0.36562833 0.5421105
0003d0 08 ab 28 3e f5 64 a2 bd 96 d4 e3 be 1d 66 65 bf
       0.16471493 -0.07929412 -0.44498128 -0.8960894
0003e0 ab a5 62 bf 7b a6 6c bf a8 d8 28 bf fb 08 c8 be
       -0.8853404 -0.9244153 -0.6595559 -0.39069352
0003f0 d8 6b 48 bf bd a0 1d 3e 48 0f 1b 3f d0 c8 a0 bf
       -0.78289557 0.15393348 0.6057019 -1.2561283
